model/NongPO/keypoint_classifier.tflite (tflite, 6588 bytes, 6 tensors)

sequential/dense/BiasAdd/ReadVariableOp f4 [20]
00000000: 7fe1 c63d eb45 66bd 45cf 1abe 9ac5 a53c
00000010: e290 05be 36f0 4f3e e39c aa3e 91ca 8fbe
00000020: b0a0 ebbe a1d7 08be a53f d8be fdc4 c8be
00000030: 0f60 98be 74de 913e 25e0 a8bd 3f57 48be
00000040: 4444 163c 4c05 c6bd 2a1d 21bd c162 e5be
0.09710979 -0.056219023 -0.1511813 0.020235825 -0.1304355 0.20306477 0.3332282 -0.28084233
-0.46021032 -0.13363506 -0.42236057 -0.3921279 -0.29760787 0.2849003 -0.08245877 -0.19564532
0.009171549 -0.09668979 -0.039334454 -0.44801906

sequential/dense_2/BiasAdd/ReadVariableOp f4 [5]
00000000: 9eb3 63be 394f f4be 4b9e 393f 7b36 aa3e
00000010: 235c 103e
-0.22236487 -0.47716692 0.7250716 0.3324469 0.14097647

sequential/dense_1/BiasAdd/ReadVariableOp f4 [10]
00000000: 05c0 0abe e26c 99be 4c97 df3e 4b1a da3e
00000010: ec8e 2f3f 9c0b 92be b537 0c3e 5161 e63e
00000020: 51aa 8d3e 6bf7 fbbd
-0.13549812 -0.29965883 0.43670118 0.42598185 0.68577456 -0.28524482 0.13693126 0.44996122
0.27669004 -0.123030506

sequential/dense/MatMul f4 [20, 42]
00000000: e0a9 7c3c 346a 873e 0d87 12be 735b 7d3c
00000010: 7b28 02bf 5674 293e 078d a6be e8df 83bd
00000020: 9c83 cbbe d0c4 43bd fff1 20bf 120c 3fbe
00000030: f4b5 75be fce4 0cbe f039 85be 5de0 1b3e
00000040: c67b 43be 4b53 733d 7d5a 15bf abb9 37bd
00000050: 679d 50bf 7d56 0bbe 1d6c 3fbf 22c6 12bd
00000060: 541e aebe 4ef5 60be d450 67be 8a05 10bc
00000070: 13a8 0cbf 0988 d5bd db46 afbe ff8c 733e
00000080: 0385 b5be 5a29 173e c51e ecbe de24 203e
00000090: 99ea d9be d218 043e 518d 9bbe 7ab4 713e
000000a0: 1d8c 10be 1ab9 9b3d a408 85be 42ca dcbd
000000b0: 9083 f03d 4f71 37bb 70a6 753e 918a 103d
000000c0: f4fb a7be 5173 7d3d d087 77be 0fdb e1bd
000000d0: e8d0 7bbd b65d 0fbe 4c57 41be ed14 c43d
000000e0: 1809 32be 88ed 69bc 63df 123b 8f1c 7ebd
000000f0: 7586 b8be 115f e23d 80d7 30bf 70c5 eebc
00000100: 3de7 27bf ecd6 063d 3524 e5be 23c7 15bd
00000110: c5f9 61be 96b3 a73b 1a2c fbbe 0e8e 163e
00000120: 6c78 74be 6f65 583e ab4c 9e3d de3e 9f3e
00000130: 195e 43bd fed3 cfbd 15ad 71be ad90 b33d
00000140: ba8e 81be 39f3 17bb a463 d1bd cc4f bf3e
00000150: 7aa4 083e 5e6d 59be b559 47be 169e 293e
00000160: fa28 eebe 50b4 393d bf76 adbe ce31 1abe
00000170: c2c9 0dbf a262 4c3e d515 4cbe b471 cebd
00000180: 9e98 a7be 6693 03bd 3b26 39bd 7981 d03d
00000190: 18bd 4f3a 3f0f ff3d 90c4 043e 5ffd 27be
000001a0: 7c4b 073f a333 153d 90ae 933e bdd7 2c3c
000001b0: 8c3f 153f e1b3 02bd 2de9 9f3e 1f44 c5bd
000001c0: 52b6 003c aca2 abbd acd3 7ebe b47b c0be
000001d0: 9d4e c2be bf34 03bf 01fe b73e c541 7d3d
000001e0: b480 a93e bde4 093d 7c35 0c3d 02f3 6abe
000001f0: 4791 a93e dd3f b5bd 6cac 9d3e abe3 5cbe
00000200: d449 13be 01bb 013e 10c1 1bbf 4f7a a3bc
00000210: e3a5 1fbf e7fb 833e e79c 44bf a07c 843c
00000220: c38f a2be 0422 c7bb bd2e aebd 138c 953d
00000230: c781 a73c 092e acbd a241 14be d135 a3bc
00000240: e274 0fbf 3401 8f3c fed8 22be da67 01bd
00000250: a5e4 11bf 66a0 193c 211e 63be 93db 27be
00000260: ebe8 cbbe a498 48be 2d1f 96bd 92ab 14bd
00000270: 507f eebe d699 643b 0f80 10be 4d98 21be
00000280: efbb a7bd 9784 c53c 5908 ff3d 8127 a23c
00000290: f4a4 013d 5489 433d 578f 06be 9457 a6bd
000002a0: d6f9 183e e8b4 13bd af9f 3fbe be08 adbe
000002b0: 0ef8 cbbe 0655 e93b 1cff 36bf 8cb0 f6be
000002c0: 51b3 1abf 07ae 90be cb02 163e 6903 be3d
000002d0: 0dc1 c2bb e8f5 ae3d 814e 543e 26d5 913d
000002e0: d069 ffbd 670f 013e 581d 603d c281 01be
000002f0: d9fd 61be 72dc dcb9 1a06 1abf 2bc5 d93d
00000300: 34fd 16bf a988 31be dcb5 8dbe 9291 85be
00000310: 64a7 903d 13a8 cabc 853b c3be 5848 4538
00000320: 9e9a 50be bad6 d1bc b04e 81be 5ca5 c03d
00000330: 6b18 aabe 2d04 87bc ab9b 823d 4fad 7cbe
00000340: 8139 3abe ecbf 403e e0ab 583e b14d 27be
00000350: ccd7 ef3d 590f 83be 1378 153e fac4 4fbe
00000360: 3cc9 8a3e e8d1 96be 2073 c2be 534f 8dbe
00000370: d8bf 013f e647 96bd 9957 cf3e 582b 0dbe
00000380: 3b98 9d3e 4954 38be f6e5 033d 5ea6 13bc
00000390: d8b7 963e f62a efbc 7cb3 003e 60bc 4abe
000003a0: 5312 f83e a2de 763e e7f5 3b3f 07e2 753e
000003b0: ffbe 1c3e a50b 88be 119e fc3e 9722 a93d
000003c0: 47f3 6c3e b054 9d3e 4b8d c03e f21d a63e
000003d0: 3ff8 abbc 9c84 b7bd 1065 703e 4615 133d
000003e0: b73f 593e dd35 533e 8cd1 0f3f 57c0 b33e
000003f0: 0e20 9c3e 6073 c63c 31c7 963e ebbf bcbe
0.015421361 0.26448214 -0.1430933 0.015463698 -0.5084302 0.16548285 -0.3252947 -0.06439191
-0.39748847 -0.047795117 -0.62869257 -0.18656948 -0.23995191 -0.13759226 -0.26020765 0.15222307
-0.19090185 0.059405606 -0.583412 -0.0448548 -0.81490177 -0.13607211 -0.7477434 -0.035833485
-0.34007514 -0.21968576 -0.22589427 -0.008790383 -0.5494396 -0.10426337 -0.34233746 0.23784254
-0.35453042 0.14761868 -0.46117225 0.15639064 -0.42561796 0.12900093 -0.30381253 0.23604003
-0.14115949 0.07603665 -0.25983155 -0.10780765 0.117438436 -0.0027991121 0.23989272 0.035288397
-0.32809412 0.061877552 -0.24172902 -0.1102811 -0.061478525 -0.14000592 -0.18880957 0.09574304
-0.17386281 -0.014277823 0.002241098 -0.062038954 -0.36040083 0.11053289 -0.69078827 -0.02914688
-0.65587217 0.03291981 -0.44754186 -0.036566865 -0.22067936 0.005117844 -0.49057084 0.14702627
-0.23874062 0.21132444 0.07729467 0.3110265 -0.04769716 -0.10147856 -0.23601182 0.08767829
-0.25304204 -0.0023185743 -0.10224083 0.37365568 0.13343993 -0.21233127 -0.19467814 0.16564211
-0.46515638 0.045337975 -0.3387966 -0.15058061 -0.55385983 0.199595 -0.19930203 -0.10080281
-0.32733625 -0.032122992 -0.045202475 0.10180945 0.00079246005 0.1245408 0.12965608 -0.16405247
0.52849555 0.036426198 0.28844118 0.010549483 0.5830009 -0.031909827 0.31232587 -0.09632134
0.007855969 -0.083806366 -0.24885434 -0.37594378 -0.37950602 -0.5125236 0.35935977 0.0618303
0.33106005 0.033665407 0.034230694 -0.22944263 0.3311865 -0.088500716 0.3079561 -0.21571223
-0.14383632 0.12668993 -0.60841465 -0.019955782 -0.623625 0.25778124 -0.76801914 0.016172707
-0.31750306 -0.006077053 -0.08505008 0.07302108 0.020447625 -0.08407218 -0.14478162 -0.019923123
-0.56037724 0.017456628 -0.15903088 -0.03159318 -0.5698951 0.009376621 -0.22179462 -0.16392355
-0.3982614 -0.19589478 -0.07330165 -0.036296435 -0.46581507 0.0034881732 -0.1411135 -0.15780754
-0.08190142 0.024111075 0.12452764 0.019794228 0.031651452 0.04773839 -0.13140617 -0.08122173
0.14939055 -0.036061198 -0.18713258 -0.33795732 -0.39837688 0.0071207313 -0.71483016 -0.4818157
-0.60429865 -0.28257772 0.14649503 0.09277994 -0.0059434236 0.08542997 0.20733072 0.07120733
-0.12471354 0.12603532 0.054715484 -0.12647155 -0.22069491 -0.00042125914 -0.6016556 0.1063331
-0.5898011 -0.17337288 -0.2767781 -0.26087624 0.07063177 -0.024738347 -0.38131347 4.7035835e-05
-0.20371482 -0.025615085 -0.25255346 0.0940654 -0.33221754 -0.016481483 0.063773476 -0.24675487
-0.18185998 0.18823212 0.21159315 -0.1633823 0.11711082 -0.25597647 0.14596586 -0.20289984
0.27106655 -0.2945702 -0.37978458 -0.27599582 0.50683355 -0.07337932 0.4049652 -0.13786066
0.30780205 -0.18000902 0.03220173 -0.009011833 0.29437137 -0.02919529 0.12568468 -0.19798422
0.4845148 0.24108365 0.7342209 0.24012004 0.15307234 -0.26571384 0.49339345 0.082585506
0.23139678 0.30728674 0.37607798 0.3244472 -0.020992396 -0.0896084 0.23476052 0.03590896
0.21215712 0.20626016 0.5617912 0.3510768 0.30493206 0.024224937 0.29448846 -0.36865172

sequential/dense_1/MatMul f4 [10, 20]
00000000: 3c05 963e 4aa8 533f 14fc 943e ab34 aa3e
00000010: 54c9 5f3e 5229 48be 5c29 e43e ce0e 00bf
00000020: 51f7 883d 5619 ab3e c08e fb3e d384 e3bd
00000030: 779d e4bd 1be3 e03d 630e 433f c705 443f
00000040: e818 0abe b9b6 0c3f 9485 263e 6fb5 483f
00000050: 011e 14bf 8376 48bc 6439 37be f505 26bf
00000060: 9653 7f3d 7cc5 573e bd19 5cbe 1350 063f
00000070: 4d5f 063f 2024 8a3e a9ac 543d 9142 593f
00000080: 7237 24be 2329 2a3e d912 753e 6cca 96bd
00000090: 47b0 0f3f 19e9 1f3f 4fca 58be 4a2a ca3e
000000a0: 27da 9c3d 7c08 2abf d2de d53e d8b1 8c3d
000000b0: 41c3 68be ea18 e3be 35ef 93be 51f6 233e
000000c0: a99b 8a3e 99e9 d73d c11c b73e 6763 973e
000000d0: f0f9 963e bbb9 a83e ff99 103f 355c f2be
000000e0: d92f b23e 8518 6a3f 67b4 b8be c856 013f
000000f0: 8236 16be db25 903e f667 90be fae9 92be
00000100: ba9b e1be c87e a53e c9e2 dc3c f35d 5dbc
00000110: f6dd 6a3e 44ec 193e 3352 63bd 6842 0a3e
00000120: 74a1 3b3d 432e 57bd 04c3 8d3e d838 11bf
00000130: a6ea 97bd b46d 4b3f 56b1 97bd 1027 b6be
00000140: 4a53 e03e 8ec9 e03c f2a9 1ebf 132c 8ebd
00000150: 89d0 16be 500d bd3e 784e 693f 3e4a 033f
00000160: 95a9 dfbe 7709 463e f28b b8be 1ec5 6cbe
00000170: fdac 44bf 1d76 d03e 3b13 bdbe 1cc6 963e
00000180: 2c79 083f 23d6 35be 62a5 74bd 6824 48be
00000190: 7d6c 353f 89a0 bf3c dff7 a63e cf2d 383f
000001a0: a3fd 533f f2b5 c73d 7a98 00be 9011 af3e
000001b0: 948c 003f f79c 9f3d f897 873f 827e 263e
000001c0: 074a 2d3f 8fe3 0e3e 5e92 d33e 5a85 d13e
000001d0: 3a0c c3bd 146d 123f 8052 583f eda9 1a3f
000001e0: c1b9 b8be 43e4 98be 652d 80be 5cfb 0bbf
000001f0: 11c0 8c3e a095 d13e 2fbb 5e3e 5dce ce3d
00000200: f64e 323e 4532 44bf 3587 7e3d b357 073f
00000210: ae9e 0cbe 3404 923e 36dc 25be e7a7 073f
00000220: 62b4 e13d 4585 1fbe 9679 413d 8097 3fbd
00000230: 5f0c 693d 8a18 d1be e4f1 223f 0a29 0a3e
00000240: 20dd 913e d2f6 283f 02f1 953d eadd c8bd
00000250: f22b 583e 49df d83e 0436 8fbd 5126 dbbd
00000260: ddca bb3d 38f1 533f 516a 1ebe 7392 9c3e
00000270: 7266 ef3e 3079 03bf c4ab a1be dd57 b53d
00000280: b875 db3e 9dcb 4e3f 5a97 bdbe 1712 aa3e
00000290: 80f7 e03e 5042 0bbf ce14 1c3f f95c a4be
000002a0: 9d92 c43d 8d7e f93c d862 0c3f ba4a 27bf
000002b0: bd99 043e f42a aebe 1f37 163f 752a 933e
000002c0: 287c b9be 074d 3fbe 6834 483e 4ffc 853e
000002d0: 09c2 c1be 3352 03bf 4580 f1bd be13 21bf
000002e0: 9d4b 91be c9cc 273f ebaf b9bb cc15 363f
000002f0: 1922 3c3f b044 c93e 1d19 ae3e 632a 323f
00000300: 5e09 153f c9d8 f43d f4c3 36be 256e f23e
00000310: b3d5 333f fe56 32be 66b7 2fbf af1e 363e
0.2930087 0.82678664 0.2909857 0.33243307 0.21854144 -0.19547012 0.44562805 -0.5002259
0.06687797 0.33417767 0.49132347 -0.111093186 -0.111628465 0.10980817 0.7619383 0.76571316
-0.13486063 0.5496631 0.16261894 0.78401846 -0.5785828 -0.012235287 -0.17892987 -0.6485284
0.062335573 0.21071428 -0.21494193 0.52465934 0.5248917 0.26980686 0.051922474 0.848672
-0.16036776 0.16617255 0.23932971 -0.07362828 0.5612835 0.62465054 -0.21170925 0.3948539
0.07658797 -0.66419196 0.4177156 0.068698585 -0.22730733 -0.44354945 -0.28893438 0.16011931
0.27071884 0.10542602 0.35764125 0.29568025 0.29487562 0.329542 0.5648498 -0.47335973
0.3480213 0.91443664 -0.36075136 0.5052304 -0.1466923 0.2815388 -0.28204316 -0.28694135
-0.44064122 0.3232329 0.026963608 -0.013511169 0.22936234 0.15031534 -0.055498313 0.13501894
0.04580827 -0.052534353 0.27687848 -0.5672736 -0.074178025 0.7946427 -0.07406871 -0.35576677
0.43813545 0.027439859 -0.61978066 -0.06942 -0.14727987 0.3692422 0.9113536 0.5128516
-0.43684068 0.19339548 -0.3604427 -0.23122069 -0.7682646 0.40715113 -0.36928734 0.2944802
0.53309894 -0.17757468 -0.059728034 -0.19545138 0.70868665 0.023391979 0.32610986 0.719449
0.82808894 0.097515 -0.12558165 0.34193087 0.50214505 0.077936105 1.0593252 0.16259196
0.6769108 0.13953994 0.41322607 0.40922052 -0.095238164 0.5719769 0.84500885 0.60415536
-0.3607922 -0.2986165 -0.25034633 -0.5468042 0.27490285 0.40934467 0.21751092 0.100979544
0.17412934 -0.76639205 0.062140662 0.52868193 -0.13732406 0.28518832 -0.16197285 0.52990574
0.110207334 -0.15578182 0.047235094 -0.04677534 0.056896564 -0.40839034 0.63650346 0.13492218
0.28489017 0.6600162 0.07321359 -0.09807952 0.21110514 0.42357853 -0.069927245 -0.10700668
0.091695525 0.82789946 -0.15470244 0.30580482 0.46757847 -0.5135679 -0.3157636 0.08854649
0.4286325 0.8077944 -0.37029535 0.33216926 0.43938828 -0.5439806 0.60969245 -0.32102183
0.09598277 0.030455852 0.54838324 -0.653484 0.12949272 -0.34017146 0.5867786 0.2874333
-0.36227536 -0.18681727 0.19551241 0.2616906 -0.3784335 -0.512973 -0.117920436 -0.6292075
-0.28378 0.6554685 -0.005666723 0.7112701 0.7348953 0.39310217 0.34003535 0.69595927
0.5821742 0.11955411 -0.17848188 0.4734966 0.70247954 -0.17415997 -0.6863922 0.17785142

sequential/dense_2/MatMul f4 [5, 10]
00000000: d54c a8be 0302 4e3f 8dd2 823f 958c ab3e
00000010: 3420 53bf b67d 853e 63e3 8bbe 60ab 39bf
00000020: dca0 1dbe e96a b33e 26fe f9be df7f 4e3f
00000030: a547 d93c c24f 21bf 3ce9 b5be 54e8 1dbb
00000040: 5785 2b3f 0703 ba3e 0859 fbbe 0b2b 663f
00000050: 8453 84bf fd3c 9bbd 30e6 4f3e 2069 c63e
00000060: 7df8 673f d1b3 8fbf aa15 bb3e 3c0d 0a3f
00000070: 1b27 cb3d fc3e 533e ba31 b3bd 02c3 53bf
00000080: 4f56 653f 5d5d 26bf 7a90 6bbe 2ccc 8e3e
00000090: 5909 34be 3f0c 5e3f 52ec 913e a0b9 86bf
000000a0: db4f b53e 8b29 e3be 651f 56bf d27d fabe
000000b0: e13f b53e a5d1 dd3e fe04 00bd d501 4cbf
000000c0: 185b 533f 8feb 83bf
-0.32871118 0.8047182 1.0220505 0.33505693 -0.82471013 0.26072472 -0.2732192 -0.7252712
-0.15393394 0.35042503 -0.48826712 0.80663866 0.02652342 -0.63012326 -0.35529506 -0.0024094777
0.67000335 0.36330435 -0.49091363 0.8990943 -1.0337987 -0.07579992 0.20302653 0.3875208
0.9061354 -1.1226751 0.36539966 0.53926444 0.09919568 0.20629495 -0.08749719 -0.82719433
0.8958482 -0.6498621 -0.23004332 0.27890146 -0.17581691 0.86737436 0.2850061 -1.0525398
0.35412487 -0.44367632 -0.83641654 -0.48924118 0.35400298 0.4332401 -0.03125476 -0.79690295
0.82560873 -1.0306262
