model/vincentvilo/keypoint_classifier.tflite (tflite, 6544 bytes, 6 tensors)

sequential/dense/BiasAdd/ReadVariableOp f4 [20]
0	0x3e1f1c81	0.15538217
1	0xbcd336b6	-0.025782924
2	0x3e018059	0.12646617
3	0xbba5d30f	-0.0050605605
4	0xbc9702dc	-0.01843398
5	0x3b77a5e1	0.003778808
6	0x3c57dc20	0.0131750405
7	0x3aca6ed6	0.0015444409
8	0x3d794ec9	0.06086615
9	0xbd96ed80	-0.07369518
10	0x3cd17008	0.025566116
11	0xbd6ab3a4	-0.057300225
12	0xbce4fb7c	-0.027951948
13	0xbc427629	-0.011868992
14	0x3ca1a84d	0.019733572
15	0x3d80499f	0.06264042
16	0xbd9abcbc	-0.075555295
17	0x3e50d682	0.20394328
18	0x3d588299	0.052858923
19	0xbe0016eb	-0.12508743

sequential/dense_2/BiasAdd/ReadVariableOp f4 [4]
0	0x3ebf150d	0.37320748
1	0xbe937bdb	-0.28805432
2	0x3e183704	0.14864737
3	0xbe8c4a6c	-0.2740053

sequential/dense_1/BiasAdd/ReadVariableOp f4 [10]
0	0xbdfb9c69	-0.12285692
1	0x3dd04643	0.10169651
2	0x3e3e17ff	0.18563841
3	0x3de05e92	0.10955538
4	0xbd00c209	-0.031435046
5	0x3de1092f	0.1098808
6	0xbd820ff8	-0.06350702
7	0x3d19e404	0.03757097
8	0x3f09fd5e	0.5390223
9	0x3e2f3760	0.17110968

sequential/dense/MatMul f4 [20, 42]
0	0x3d035ca8	0.032070786
1	0x3d0c1210	0.034196913
2	0xbd149535	-0.036275107
3	0xbf04fdfc	-0.5195005
4	0xbd72bca9	-0.05926195
5	0xbe97fcfb	-0.29685196
6	0xbd53bd1d	-0.051694024
7	0xbd5c99e7	-0.05385771
8	0xbe0cfaa6	-0.1376749
9	0xbe1c099c	-0.1523804
10	0x3edc3b3e	0.43013948
11	0xbd80a9cb	-0.062823854
12	0x3e86be66	0.26317137
13	0xbe32ac31	-0.17448498
14	0xbe19c5db	-0.15016882
15	0x3c150edf	0.009097784
16	0xbe8d36a8	-0.27580762
17	0x3cae305a	0.02126329
18	0x3f205cab	0.626414
19	0xbec0f943	-0.37690172
20	0xbe85e5cc	-0.26151884
21	0x3ce3600d	0.027755762
22	0xbddf6f1c	-0.10909864
23	0x3d689dde	0.05679118
24	0xbe1a1c69	-0.150499
25	0x3e718429	0.23585571
26	0x3f41f9be	0.757717
27	0xbe192f3c	-0.14959425
28	0xbf31e90b	-0.6949622
29	0x3d9f0203	0.077640556
30	0xbefd5e1e	-0.49485868
31	0x3e33d5b1	0.17561986
32	0xbec1d78b	-0.3785976
33	0x3e96c7b7	0.29449245
34	0x3ea870ea	0.32898647
35	0x3d8072f6	0.06271927
36	0xbf251267	-0.64481205
37	0x3deb46c7	0.11488109
38	0xbf491583	-0.7854845
39	0x3e026807	0.12734996
40	0xbe5ffeeb	-0.21874587
41	0x3ea488ea	0.32135707
42	0x3cbcf670	0.02306673
43	0x3e31cdb4	0.17363626
44	0x3d652f75	0.05595346
45	0xbe3ca6cf	-0.18423007
46	0x3e9c5691	0.30534795
47	0x3d51920a	0.051164664
48	0xbd9ba885	-0.07600502
49	0xbe4f95f4	-0.20272046
50	0xbf1209d7	-0.57046264
51	0xbe9ab045	-0.30212608
52	0x3e7677cd	0.24069138
53	0x3e31498a	0.17313209
54	0x3e8c6d86	0.2742731
55	0x3e98478f	0.29742095
56	0x3ee603d5	0.449248
57	0x3db6ccec	0.089258045
58	0x3d9a5d67	0.07537346
59	0x3e9f4c5b	0.31112942
60	0xbc27e3f8	-0.010247223
61	0x3d65ae35	0.05607434
62	0x3e64b8f4	0.22336179
63	0xbd6b924c	-0.057512566
64	0xbd87428d	-0.066044904
65	0xbdd18b43	-0.1023164
66	0x3ead42b3	0.3383995
67	0x3e61b7ea	0.22042814
68	0xba54e5e8	-0.0008121417
69	0x3d931dc6	0.07183413
70	0x3e8013cd	0.25015107
71	0x3e3e0175	0.18555243
72	0x3d9320bd	0.07183979
73	0x3e12b735	0.143277
74	0x3df9ff21	0.12206865
75	0x3dedb6ff	0.11607169
76	0x3aac86a1	0.0013162681
77	0x3e97ff58	0.29687
78	0x3dbc414e	0.091921434
79	0x3dd153aa	0.10221036
80	0x3e038dbc	0.12847036
81	0xbcb609f2	-0.02222154
82	0x3e0d4226	0.13794765
83	0xbec30909	-0.3809283
84	0xbe387a6b	-0.18015449
85	0xbdfe4c3e	-0.12416886
86	0xbe9aa226	-0.30201834
87	0xbe9c7bdc	-0.30563247
88	0xbe78e23f	-0.24305056
89	0xbe943799	-0.28948668
90	0x3df174b5	0.11789838
91	0xbf249532	-0.64290154
92	0xbf0c7e75	-0.5488046
93	0xbe675f73	-0.22595005
94	0x3e48575a	0.19564572
95	0x3da2457d	0.0792341
96	0x3d5bf728	0.053702503
97	0x3b6e9f3e	0.0036410834
98	0x3e7101fc	0.23535913
99	0xbd9521a4	-0.07281807
100	0xbec1e225	-0.37867847
101	0xbe13c542	-0.14430717
102	0x3eaf3f4b	0.34227976
103	0xbe2afed6	-0.16698775
104	0xbf23c03e	-0.63965213
105	0x3e6f8241	0.23389532
106	0xbec2ecc3	-0.3807126
107	0x3e302677	0.17202173
108	0x3e6e19fa	0.23252097
109	0x3d43d7ca	0.047813214
110	0x3e5b33fb	0.21406548
111	0xbe1e5c83	-0.15464978
112	0xbf3b8c23	-0.73260707
113	0x3d5579a9	0.052117977
114	0xbf02e974	-0.5113747
115	0x3e1f48e2	0.15555146
116	0xbb45d1b4	-0.0030184807
117	0x3e462f74	0.1935404
118	0x3e99809e	0.2998094
119	0x3c614350	0.013748959
120	0xbec7aa77	-0.38997242
121	0xbcd678ac	-0.026180588
122	0xbd7f3f97	-0.062316503
123	0x3e45ee5d	0.1932921
124	0x3b3d7455	0.002890845
125	0xbca8e754	-0.020618118
126	0xbc14e460	-0.009087652
127	0x3e0641ea	0.13111082
128	0x3cdc0197	0.026856227
129	0xbd327d0f	-0.043576296
130	0x3d3e6fbb	0.046493273
131	0x3caf1c61	0.021375837
132	0x3deefdd0	0.11669505
133	0x3e850074	0.25976908
134	0xbbc700e6	-0.006073105
135	0x3e3a2a51	0.18180205
136	0x3b6420d9	0.0034809618
137	0x3e40a9f7	0.18814836
138	0x3dd50bca	0.10402639
139	0x3d733221	0.05937398
140	0x3d2b708e	0.041855387
141	0x3d44ff64	0.048095122
142	0xbe4797d2	-0.19491509
143	0x3e16e45a	0.14735547
144	0xbe2d4f4d	-0.16924782
145	0xbd9d938b	-0.07694157
146	0x3e3f89c2	0.18704894
147	0x3d863983	0.06553938
148	0xbe6131a5	-0.21991594
149	0xbe269db9	-0.16271104
150	0xbebc618c	-0.36793172
151	0xbd27e2c8	-0.04098776
152	0xbdb979c4	-0.09056428
153	0xbe9216ec	-0.28533113
154	0x3e00575f	0.1253333
155	0xbeaab22a	-0.33339053
156	0xbea09dee	-0.3137049
157	0x3c1d7556	0.009610495
158	0xbe800daf	-0.2501044
159	0xbc98099c	-0.01855927
160	0xbe1a9112	-0.15094402
161	0xbe2cd131	-0.16876675
162	0xbe6f7a02	-0.23386386
163	0x3e18ce7a	0.14922515
164	0xbf5e0340	-0.8672371
165	0x3e749276	0.23883995
166	0xbf89f141	-1.077675
167	0x3e440649	0.19143023
168	0xbe9b1af5	-0.30294004
169	0x3e12d03e	0.1433725
170	0x3d52d851	0.051475827
171	0xbe89cc74	-0.26913798
172	0x3e8e91d9	0.27845648
173	0x3e466012	0.19372585
174	0x3e6842fa	0.226818
175	0x3c67aed8	0.014140807
176	0xbd4662f9	-0.04843423
177	0xbe2d4938	-0.16922462
178	0x3ee18403	0.4404603
179	0xbc6c7060	-0.014431089
180	0x3daa0618	0.083019435
181	0xbe6c29dc	-0.23062843
182	0x3eb353bb	0.3502482
183	0x3e360a7a	0.17777434
184	0x3e7ae1e4	0.24500233
185	0x3dabbe54	0.083859116
186	0x3d34207e	0.0439763
187	0xbddf9773	-0.109175585
188	0x3e9ce005	0.30639663
189	0xbdfd0fb4	-0.12356511
190	0x3edcde30	0.43138266
191	0xbde1276e	-0.10993849
192	0x3f0dd896	0.5540861
193	0xbe8793d8	-0.26479983
194	0x3dd854f5	0.10563079
195	0x3db7ae3a	0.08968778
196	0x3f1015f5	0.56283504
197	0xbe89bc07	-0.26901266
198	0x3dd24c77	0.10268491
199	0x3de66f0c	0.11251649
200	0x3e702d41	0.23454763
201	0xbd747ba2	-0.059688218
202	0xbcd51886	-0.02601267
203	0x3e88deae	0.2673239
204	0x3e874a06	0.26423663
205	0x3ddaf3cd	0.106910326
206	0x3e00bd5d	0.12572236
207	0xbe575e4b	-0.21032064
208	0x3eacb975	0.33735242
209	0xbe12c99c	-0.1433472
210	0xbe329e44	-0.17443186
211	0x3e15b928	0.14621413
212	0xbd451bcf	-0.048122223
213	0x3db672a7	0.08908587
214	0xbeaaf0f3	-0.33386955
215	0x3e9ab768	0.30218053
216	0xbdc7cb45	-0.097555675
217	0xbe166b74	-0.14689428
218	0xbe554eb5	-0.20830806
219	0x3d4dfd0c	0.050290152
220	0xbe7ee15c	-0.24890655
221	0x3e93e98e	0.28889126
222	0xbe7ccf4f	-0.24688457
223	0xbcd148f1	-0.025547476
224	0xbdf7a1d5	-0.12091414
225	0x3ceb36b4	0.028712608
226	0x3c883399	0.016626166
227	0xbd94fd09	-0.07274825
228	0xbee4081a	-0.4453743
229	0x3e568a57	0.2095121
230	0xbd737c00	-0.059444427
231	0x3e569e00	0.2095871
232	0xbe0a5092	-0.13507298
233	0x3d84f9c3	0.06492951
234	0xbe35193c	-0.17685407
235	0xbe5c93ad	-0.21540709
236	0xbf2562f5	-0.6460412
237	0x3e29f77b	0.16598313
238	0x3d9cb4e2	0.07651688
239	0x3e1f61f3	0.15564708
240	0x3ea371cf	0.31922767
241	0xbe30212b	-0.17200153
242	0xbc03ce78	-0.008044831
243	0xbe6f3f43	-0.23363976
244	0xbee2b527	-0.44278833
245	0x3bc997a3	0.0061521097
246	0x3e821bea	0.25411922
247	0x3e09eddb	0.13469641
248	0x3e11dd05	0.14244469
249	0xbd9b4990	-0.0758239
250	0xbd529200	-0.051408768
251	0xbf00aa34	-0.5025971
252	0x3dcdfe04	0.10058215
253	0xbca5a0d0	-0.020218283
254	0x3d109ac9	0.035303865
255	0x3eeb345f	0.45938393

sequential/dense_1/MatMul f4 [10, 20]
0	0x3d545456	0.05183824
1	0x3db04349	0.086065836
2	0xbe5cf76d	-0.2157876
3	0x3c2ddbf4	0.010611523
4	0x3f121288	0.57059526
5	0x3e866f97	0.2625701
6	0x3e8e4c43	0.27792558
7	0x3ed431c2	0.41444212
8	0x3f32052a	0.6953913
9	0x3ee030ce	0.43787235
10	0xbe734d31	-0.23759915
11	0x3e0aae92	0.13543156
12	0x3f3e55a7	0.74349445
13	0x3f3e9532	0.74446404
14	0x3f26bdda	0.6513344
15	0xbe90c4bc	-0.28275096
16	0x3f40239b	0.7505433
17	0xbddf7e6e	-0.109127864
18	0x3e83f7ad	0.257749
19	0x3ee1ffc5	0.4414045
20	0xbda05198	-0.07828063
21	0xbeb43a2c	-0.35200632
22	0xbd5f3cf4	-0.05450149
23	0x3f46ce5b	0.77658623
24	0xbd2e2be2	-0.04252232
25	0x3f024063	0.50879496
26	0x3f390f3d	0.72288877
27	0xbd9076ef	-0.07053935
28	0xbd97176e	-0.07377516
29	0x3eac0505	0.3359758
30	0x3f3b51cd	0.73171693
31	0xbe9d46a0	-0.30717945
32	0xbdbed3b6	-0.093177244
33	0x3eb408cb	0.35162959
34	0xbda493bd	-0.08035991
35	0xbe28c5c7	-0.16481696
36	0xbdca3335	-0.09873048
37	0xbe6b2888	-0.2296468
38	0x3e87c882	0.26520163
39	0x3f1c562f	0.61069006
40	0x3f3dbfae	0.74120605
41	0x3eb9bdea	0.36277705
42	0xbead4282	-0.33839804
43	0xbf087446	-0.5330242
44	0xbe13c848	-0.1443187
45	0xbef2d905	-0.47431198
46	0xbdae646d	-0.085152484
47	0xbb9b3b63	-0.004737304
48	0x3df20547	0.11817413
49	0xbe4e2f02	-0.2013512
50	0xbe896d6e	-0.268413
51	0xbeb3626f	-0.35036036
52	0xbd831ed5	-0.06402365
53	0xbc9169ee	-0.017750707
54	0x3ea1884e	0.31549305
55	0xbe4bb61b	-0.19893686
56	0x3bc4ee43	0.0060098483
57	0x3ddae387	0.10687929
58	0x3cddd4d7	0.027079029
59	0xbdc4db2b	-0.096121155
60	0x3f25a4ea	0.64704764
61	0x3e8f7d12	0.2802511
62	0x3f03dd1d	0.5150927
63	0xbdc07ad6	-0.09398429
64	0xbe526a35	-0.20548327
65	0xbf0f3b60	-0.55949974
66	0xbe9f75a6	-0.31144446
67	0x3eb2b96e	0.34907097
68	0x3ce863f4	0.028367974
69	0xbef366d9	-0.47539404
70	0xbe9acd68	-0.30234838
71	0x3ed7dcbb	0.4216059
72	0x3eda94c7	0.42691633
73	0xbee95834	-0.45575106
74	0x3e41584b	0.18881337
75	0x3f1bfd05	0.6093295
76	0x3eccb046	0.39978236
77	0x3f090704	0.5352633
78	0xbd8d3b82	-0.06896116
79	0xbebd6b14	-0.36995757
80	0xbd866075	-0.065613665
81	0x3f33af27	0.70189136
82	0xbebcde18	-0.36888194
83	0x3e325c52	0.1741803
84	0x3e9b2386	0.3030054
85	0x3d39db79	0.04537532
86	0xbe8f9129	-0.28040436
87	0x3f283a97	0.657144
88	0xbd130134	-0.03588982
89	0x3e1702ab	0.14747111
90	0xbf240b0c	-0.64079356
91	0x3e8e3d2c	0.27781045
92	0x3e35acf4	0.17741758
93	0x3ecdf36c	0.4022478
94	0x3d83100a	0.063995436
95	0xbeb7addd	-0.35874835
96	0x3e2de4ab	0.16981761
97	0x3ec5f450	0.38662958
98	0xbef18028	-0.47168088
99	0xbe8d64df	-0.2761602
100	0x3e747937	0.23874365
101	0xbe6c2617	-0.23061405
102	0xbe2b0496	-0.16700968
103	0x3e824772	0.25445133
104	0xbebe0ca6	-0.37119025
105	0xbdd65e93	-0.10467257
106	0xbd1ce5f3	-0.038305234
107	0x3efb99a0	0.49140644
108	0x3edc82e1	0.43068603
109	0xbe5ae82c	-0.21377629
110	0xbe640c6b	-0.22270362
111	0xbe480166	-0.19531783
112	0x3e542d89	0.20720495
113	0xbd34bba7	-0.04412427
114	0xbd8a15ce	-0.0674244
115	0x3f08abe2	0.5338727
116	0x3edb4d3a	0.42832357
117	0x3e87c872	0.26520115
118	0x3df89321	0.121374376
119	0xbcced6a2	-0.02524883
120	0xbe7e7fe1	-0.2485347
121	0xbe95de5c	-0.2927121
122	0xbe376d8a	-0.1791288
123	0x3da69ec2	0.081357494
124	0x3e8e7c33	0.2782913
125	0x3d583273	0.052782487
126	0x3e51a56f	0.20473264
127	0xbf1c7a7c	-0.61124396
128	0x3e66a9ec	0.22525758
129	0xbd174c04	-0.03693773
130	0xbef318e9	-0.47479942
131	0x3ecf4f23	0.40490064
132	0xbb99fb96	-0.004699181
133	0xbd2e2d4c	-0.042523667
134	0xbdeda05b	-0.11602851
135	0xbe9ff72a	-0.3124326
136	0xbd1c9ebb	-0.038237315
137	0xbd13c227	-0.03607383
138	0xbe5d8458	-0.21632516
139	0xbeaca11e	-0.33716673
140	0xbe8dfd6f	-0.27732417
141	0x3f3178d7	0.6932501
142	0xbe17e2c4	-0.14832598
143	0x3e8bbec5	0.27293983
144	0x3ee74045	0.4516622
145	0xbb813bee	-0.0039439118
146	0xbdc33e4b	-0.09533366
147	0x3ef1498e	0.4712643
148	0x3ebd0451	0.36917356
149	0x3d6fba05	0.05852701
150	0x3e3cb4d9	0.18428363
151	0x3f095912	0.53651536
152	0x3d6b1f93	0.05740316
153	0xbdefcb60	-0.117087126
154	0x3f08982e	0.5335721
155	0xbe7cd29d	-0.24689718
156	0xbe7210f3	-0.23639278
157	0x3d9db1c0	0.07699919
158	0x3d4b4c37	0.04963323
159	0x3e81b6d2	0.25334793
160	0xbed1443e	-0.40872377
161	0x3db7474f	0.08949148
162	0x3ed71f9d	0.42016307
163	0xbf25b24a	-0.6472517
164	0x3eade467	0.3396332
165	0x3ecf546b	0.40494093
166	0x3f1e50c2	0.61841977
167	0xbe13c172	-0.14429262
168	0xbeb1d0d7	-0.34729645
169	0x3e824380	0.25442123
170	0x3e207d59	0.15672816
171	0x3d99cfdf	0.075103514
172	0xbd441f06	-0.04788115
173	0xbf1e5b62	-0.6185819
174	0x3e176a47	0.14786635
175	0x3ee852c9	0.4537566
176	0xbf1a361b	-0.6023881
177	0x3f10f1bf	0.56618875
178	0x3ebd14ad	0.36929837
179	0xbe57e8fd	-0.21084972
180	0x3f697c50	0.9120531
181	0xbeddc7f5	-0.43316618
182	0x3ef6c093	0.48193797
183	0x3f0e3e0a	0.55563414
184	0x3d6f3698	0.058401674
185	0xbed6c1ca	-0.41944724
186	0x3e803bba	0.25045568
187	0xbd473561	-0.04863489
188	0xbdc75c8d	-0.097344495
189	0xbea74ac2	-0.32674223
190	0x3e638256	0.22217688
191	0xbd1eb51b	-0.038746934
192	0x3ca1217c	0.019669287
193	0x3e911d4f	0.28342673
194	0xbe9fa05a	-0.31177026
195	0x3eea4406	0.45755023
196	0x3f231ffd	0.63720685
197	0x3e87704d	0.26452866
198	0x3ec4a247	0.38405058
199	0x3eda6aaa	0.42659503

sequential/dense_2/MatMul f4 [4, 10]
0	0xbcfebe4d	-0.031096602
1	0x3e2e66b4	0.17031366
2	0xbeef9bb1	-0.4679847
3	0xbf839b3f	-1.0281752
4	0xbe81066a	-0.25200206
5	0xbee93bde	-0.45553488
6	0x3ea5561d	0.32292262
7	0xbe6d4c49	-0.23173632
8	0x3f4f4cf0	0.8097677
9	0xbea5b7be	-0.32366747
10	0x3f11db49	0.5697523
11	0xbf29cf9d	-0.6633242
12	0xbd919334	-0.07108155
13	0x3e928f95	0.2862517
14	0x3e87cbb6	0.26522607
15	0x3ef5f3b7	0.48037502
16	0x3ee9570f	0.45574233
17	0x3f331612	0.6995555
18	0xbef8a68b	-0.48564562
19	0xbf56b89c	-0.8387544
20	0xbf127327	-0.5720696
21	0xbf882f15	-1.0639368
22	0x3ee9b5ad	0.4564642
23	0x3e8fea62	0.28108507
24	0xbea43dbd	-0.32078353
25	0x3f2fe45c	0.68707824
26	0x3e60fe68	0.21972048
27	0xbf7c9b20	-0.986742
28	0xbdf2ab19	-0.118490405
29	0x3f3e8845	0.7442668
30	0x3f6a0b3b	0.91423386
31	0x3f3d9e16	0.74069345
32	0xbf48406f	-0.7822332
33	0xbf137973	-0.5760719
34	0xbdcb1d84	-0.09917739
35	0x3ec64b30	0.3872924
36	0xbe853d11	-0.26023152
37	0x3e6da797	0.23208462
38	0xbf227574	-0.6346047
39	0x3ec3fd36	0.38279122
