model/avazahedi/keypoint_classifier.tflite (tflite, 6720 bytes, 6 tensors)

sequential/dense/BiasAdd/ReadVariableOp f4 [20]
-0.4703203 -0.9777087 -0.64430934 -0.5009771 -0.81686145 -0.7162628 -0.39257923 -1.0355597
-0.6530044 -0.59895706 -0.919038 -0.49671003 -0.34276977 -0.49110794 -0.9203125 -0.69820374
-0.40555575 -0.47989827 -0.711602 0.2173015
00000000: d3cd f0be 1e4b 7abf 75f1 24bf 0940 00bf
00000010: d51d 51bf 005d 37bf 2500 c9be 388d 84bf
00000020: 4c2b 27bf 4055 19bf 1346 6bbf c750 febe
00000030: 857f afbe 8072 fbbe 9a99 6bbf 7bbd 32bf
00000040: 01a5 cfbe 3ab5 f5be 8c2b 36bf 4984 5e3e

sequential/dense_2/BiasAdd/ReadVariableOp f4 [8]
-0.6591201 -0.6717907 0.3992187 -0.22148016 1.3572056 0.4051207 0.14608254 -0.18110166
00000000: 18bc 28bf 7afa 2bbf 6566 cc3e b2cb 62be
00000010: eab8 ad3f fb6b cf3e a996 153e b772 39be

sequential/dense_1/BiasAdd/ReadVariableOp f4 [10]
0.2501363 0.3200918 -0.15471847 0.7458559 0.4618353 0.54666907 0.29844677 0.24693188
0.5734567 -0.145923
00000000: dd11 803e 13e3 a33e 856e 1ebe 6af0 3e3f
00000010: ad75 ec3e 81f2 0b3f 04ce 983e b6db 7c3e
00000020: 0fce 123f d76c 15be

sequential/dense/MatMul f4 [20, 42]
0.035830468 0.15676728 0.031396545 -0.09240269 0.016703881 0.0026664778 0.005788438 -0.013086813
0.015706481 -0.012245602 0.0030565946 0.026695395 -0.029272888 0.037177067 0.012372438 0.044502687
-0.01954048 0.020866642 0.012998689 0.032010484 -0.0034873784 0.030513482 -0.03160142 0.08360119
0.0054638083 0.112293996 0.04920802 0.06382563 -0.006112309 0.05173274 0.0015375828 0.16038352
0.14160548 -1.6865786 0.045423195 0.10181385 -0.022373073 0.101609275 -0.05963787 0.19815674
-0.031832013 0.25461796 -0.2680105 -0.18038546 0.937963 -0.22846963 0.7345029 -0.017571036
0.545387 -0.15417568 0.4610851 -0.12150146 0.25569624 0.40286335 0.079459794 0.09509787
-0.09625682 0.15780398 -0.19537152 0.09006991 0.2915466 0.25497267 0.035525504 -0.25810218
-0.13251081 0.010554453 -0.20487018 0.1366527 0.2163173 -0.025284268 0.07499627 -0.2354194
-0.08392289 -0.032137047 -0.06080369 0.05428825 0.19631737 -0.14558887 0.11549641 -0.08937976
-0.04537738 -0.004406507 0.018738298 0.1371961 0.11289963 -0.2326955 -0.08763169 0.051953085
-0.13118435 -0.038399618 -0.101540186 -0.10743777 -0.07856964 -0.203293 0.011632762 0.04933513
0.04411221 -0.088363945 0.02602439 0.14635716 0.0569082 0.1500191 -0.12194616 0.006021662
0.03343931 -0.099348746 0.07652012 0.3369205 -0.00074816163 0.3325484 -0.14266054 -0.24272637
0.049644418 -0.2668826 0.048592586 0.181917 -0.06687124 0.09517266 -0.24021591 -0.66243947
-0.016284408 -1.0124882 -0.013514386 -0.46363053 0.014311512 -0.08689089 -0.030987114 -0.29393092
0.091269046 0.6004077 0.049295083 0.2589047 0.010442772 0.20005026 -0.08148308 0.17609489
0.044161666 0.13623582 0.007542871 0.09719179 0.003816865 0.08437599 -0.008150917 -1.7311319
0.026535042 0.13174619 -0.010360485 0.119570225 -0.007567486 0.09731341 -0.020212347 0.045168806
0.013363738 0.13597243 -0.02232952 0.09406305 -0.020937217 0.04806972 0.010518242 -0.019967968
0.03344981 0.15652776 -0.040575407 0.053140145 -0.028415479 0.0035975783 0.0008730497 -0.064931445
-0.20008528 0.09061596 -0.17176874 0.062634714 0.047284644 -0.06130055 -0.04112532 0.061184246
-0.27590343 0.032159697 -0.019763354 0.010240429 0.020960594 0.11455761 0.07068624 0.09058273
0.11629647 0.1378431 -0.048532154 -0.004164701 0.017205423 0.13866304 0.051770557 0.25992343
0.008343649 0.28153062 -0.0011976204 0.09431514 -0.055174064 -0.03821098 0.06592066 -0.40343356
-0.042383723 -0.09555962 -0.112658165 0.088749275 -0.00856566 -0.23155633 -0.052965503 -1.4542489
-0.14169702 -1.6251984 0.058820933 0.23301667 0.6072527 2.375377 0.2015731 1.1818469
0.17130107 0.71115077 0.08165945 0.63657564 0.017625917 0.42931062 0.015401983 0.11701637
-0.04168948 -0.18628074 -0.0868096 -0.67845625 -0.007847559 0.23233785 -0.032683123 0.07525219
-0.016853819 -0.09943187 -0.018531192 -0.40552154 0.00643686 0.008491783 -0.06241561 -0.02875049
-0.013472823 -0.13845377 -0.103172004 -0.17261364 -0.08574608 -0.2033775 -0.0071092187 -0.100920536
-0.10993386 -0.078055255 -0.15031147 -0.054769967 -0.28941473 0.26678395 0.4389962 -0.61384803
00000000: f8c2 123d 9a87 203e aa99 003d 9f3d bdbd
00000010: 94d6 883c 13c0 2e3b f0ac bd3b 126a 56bc
00000020: e1aa 803c c7a1 48bc 2651 483b 4db0 da3c
00000030: b2cd efbc fb46 183d c4b5 4a3c 7348 363d
00000040: 5b13 a0bc 85f0 aa3c 74f8 543c 6d1d 033d
00000050: 808c 64bb 69f7 f93c 7e70 01bd 1a37 ab3d
00000060: bf09 b33b 65fa e53d 598e 493d 03b7 823d
00000070: c449 c8bb b6e5 533d b888 c93a 943b 243e
00000080: 0701 113e cfe1 d7bf ac0d 3a3d c883 d03d
00000090: bc47 b7bc 8618 d03d d746 74bd 9ae9 4a3e
000000a0: 4962 02bd 495d 823e ac38 89be f7b6 38be
000000b0: 581e 703f f1f3 69be 6208 3c3f 22f1 8fbc
000000c0: 7c9e 0b3f 3be0 1dbe 5913 ec3e c2d5 f8bd
000000d0: 9eea 823e 1b44 ce3e d1bb a23d acc2 c23d
000000e0: 4c22 c5bd 5e97 213e 790f 48be 9376 b83d
000000f0: 9945 953e c78b 823e 3183 113d f825 84be
00000100: eab0 07be 96ec 2c3c 7dc9 51be afee 0b3e
00000110: 4882 5d3e f420 cfbc a597 993d c811 71be
00000120: c4df abbd 23a2 03bd 4a0d 79bd 5b5d 5e3d
00000130: 6c07 493e 4015 15be 6289 ec3d bc0c b7bd
00000140: a2dd 39bd 7664 90bb 0f81 993c 227d 0c3e
00000150: ec37 e73d bb47 6ebe 3e78 b3bd c2cc 543d
00000160: 3155 06be eb48 1dbd 4df4 cfbd 5508 dcbd
00000170: 1fe9 a0bd 0a2c 50be 5797 3e3c a213 4a3d
00000180: 01af 343d 28f8 b4bd 1a31 d53c a7de 153e
00000190: 9318 693d 9b9e 193e e9be f9bd 5d51 c53b
000001a0: a8f7 083d 5b77 cbbd 95b6 9c3d d880 ac3e
000001b0: 4720 44ba c943 aa3e 9b15 12be 438d 78be
000001c0: f257 4b3d d6a4 88be 0509 473d 7348 3a3e
000001d0: caf3 88bd e2e9 c23d 29fb 75be a295 29bf
000001e0: e166 85bc 3799 81bf 716b 5dbc fb60 edbe
000001f0: d57a 6a3c daf3 b1bd b0d8 fdbc 1d7e 96be
00000200: 44eb ba3d 52b4 193f a4e9 493d 288f 843e
00000210: 2918 2b3c fad9 4c3e 9ae0 a6bd 3852 343e
00000220: dde2 343d 6781 0b3e 302a f73b 7d0c c73d
00000230: 5e24 7a3b 52cd ac3d 6c8b 05bc bb95 ddbf
00000240: 0460 d93c 79e8 063e 06bf 29bc 3ce1 f43d
00000250: acf8 f7bb 414c c73d 5d94 a5bc ed02 393d
00000260: 94f3 5a3c 5b3c 0b3e 66ec b6bc 21a4 c03d
00000270: 8784 abbc c1e4 443d b454 2c3c dd93 a3bc
00000280: ab02 093d d048 203e 6632 26bd 7ba9 593d
00000290: 94c7 e8bc 59c5 6b3b 60dd 643a c7fa 84bd
000002a0: 28e3 4cbe dc94 b93d 25e4 2fbe a146 803d
000002b0: 8bad 413d 4916 7bbd 0673 28bd 559c 7a3d
000002c0: 3743 8dbe e3b9 033d c2e6 a1bc 79c7 273c
000002d0: 8db5 ab3c 2e9d ea3d f3c3 903d 7083 b93d
000002e0: d82c ee3d be26 0d3e a7c9 46bd 0b78 88bb
000002f0: 63f2 8c3c affd 0d3e 5d0d 543d af14 853e
00000300: cdb3 083c c824 903e 79f9 9cba 4c28 c13d
00000310: 33fe 61bd 1e83 1cbd 6901 873d d88e cebe
00000320: 8e9a 2dbd c3b4 c3bd 53b9 e6bd 2ec2 b53d
00000330: fb56 0cbc 1a1d 6dbe 5bf2 58bd d424 babf
00000340: 0619 11be 8006 d0bf 38ee 703d ec9b 6e3e
00000350: ea74 1b3f 2d06 1840 2e69 4e3e c246 973f
00000360: 8c69 2f3e fa0d 363f 123d a73d 9ff6 223f
00000370: 3a64 903c 9ace db3e 9958 7c3c 47a6 ef3d
00000380: 97c2 2abd 61c0 3ebe 3bc9 b1bd 4faf 2dbf
00000390: 0c93 00bc f9e9 6d3e bdde 05bd d21d 9a3d
000003a0: 0511 8abc f0a2 cbbd bace 97bc 85a0 cfbe
000003b0: 4cec d23b 1f21 0b3c 83a7 7fbd 2686 ebbc
000003c0: 1ebd 5cbc d3c6 0dbe d84b d3bd a1c1 30be
000003d0: a49b afbd 3142 50be 73f4 e8bb 6daf cebd
000003e0: 0125 e1bd 6fdb 9fbd 40eb 19be 7956 60bd
000003f0: 2b2e 94be e897 883e 1cc4 e03e 2525 1dbf

sequential/dense_1/MatMul f4 [10, 20]
-0.22771251 0.42964613 0.4865293 -2.0651753 0.23537138 -0.08510844 0.11993248 0.14223637
0.37996495 0.9450639 0.3750163 -0.033512343 0.30763996 -0.18451302 0.8599737 0.55617166
0.17850229 0.11178534 0.6354565 0.02984392 0.097037196 0.4976497 0.5183303 0.001394265
0.7079873 0.54690915 0.872671 0.8502676 1.0013263 -0.32976618 0.4655647 0.67103344
0.41693047 0.18724976 1.0544194 0.16904244 0.370471 0.764622 0.23342167 -0.23533629
2.0009062 0.8065318 0.24013685 -0.0746186 0.22223304 0.9482555 0.26625478 0.19810885
0.23163345 0.50761247 0.32612863 0.66838294 0.1627724 0.7815265 -0.71148914 0.35607567
1.6399126 0.0879842 0.19272605 0.61361223 -1.497447 0.104378 -0.17099617 0.25580984
-0.9702735 0.6536098 -0.26286995 -0.26474127 -0.5671656 -1.3435456 -0.768883 -0.41479343
-0.02170085 0.07978612 -0.91069037 -1.4570866 0.55446213 0.5702201 -0.80082655 0.38929635
-0.34476623 -0.008575441 0.15102905 0.7640411 -0.6147327 -0.2168457 0.33868605 0.17539999
0.22032243 -1.4275963 -0.9434253 -0.00444931 0.7263985 -0.31402922 0.06297852 -1.5102918
-0.5374445 0.13261417 -0.5402184 0.08073254 -0.42283672 0.6705249 0.31220174 2.3345745
0.01028949 1.2514364 -0.042584375 0.03375262 -0.14024878 -0.101517595 0.25493562 -0.18375419
0.5255859 -0.38324314 -0.45948276 0.2460695 0.045431748 0.60575455 0.24464057 0.88646847
0.63500065 -0.1720223 0.018386843 0.94120675 0.3630773 0.63657486 0.10985913 -0.18547235
-0.833434 0.7198737 0.352047 0.50280213 -0.05102918 0.058654916 -0.44769594 0.48963988
0.45448995 0.1165565 0.4558191 -0.603853 2.016572 -0.35768157 0.7679478 0.6696491
1.1885793 7.511875e-05 0.22902001 0.16804485 -0.079849534 1.0030997 1.3992593 -0.50914645
-0.08712552 -0.35718387 0.05828227 0.2727626 0.043352786 0.4039599 1.0110632 -0.10275181
-0.09146544 0.7637693 -0.17334059 0.1275367 -0.063919134 0.9754876 1.519538 1.649921
1.2632076 0.564928 -0.030164486 0.94942635 0.64401317 0.1696663 0.74428385 -0.03107658
0.20524262 -0.23546894 0.11213351 0.2297611 0.010247678 0.14246154 -0.6453397 0.07551225
-0.28349996 -0.19077152 0.35132015 0.17037518 0.91123 -0.011055658 -0.3202966 0.79273033
0.36962634 0.7096574 0.015610633 0.79688555 -1.1740546 -0.39738747 -0.3064754 0.6830839
00000000: 782d 69be 94fa db3e 5e1a f93e d52b 04c0
00000010: 3205 713e 554d aebd 299f f53d 69a6 113e
00000020: c48a c23e b5ef 713f 2302 c03e 3d44 09bd
00000030: fc82 9d3e fbf0 3cbe 3d27 5c3f 4461 0e3f
00000040: 4ec9 363e b6ef e43d 47ad 223f 3d7b f43c
00000050: 70bb c63d f1cb fe3e 4bb1 043f c5bf b63a
00000060: a83e 353f 3d02 0c3f 5e67 5f3f 23ab 593f
00000070: 762b 803f 1dd7 a8be 7f5e ee3e d9c8 2b3f
00000080: e977 d53e 67be 3f3e 37f7 863f 7619 2d3e
00000090: 60ae bd3e 44be 433f 1706 6f3e fffb 70be
000000a0: d90e 0040 de78 4e3f 6fe6 753e a3d1 98bd
000000b0: 0f91 633e dfc0 723f 8c52 883e 0cdd 4a3e
000000c0: 5231 6d3e e4f2 013f 55fa a63e 251b 2b3f
000000d0: cfad 263e 1f12 483f 2724 36bf 8d4f b63e
000000e0: a8e8 d13f 0f31 b43d fa59 453e b115 1d3f
000000f0: 58ac bfbf 22c4 d53d 9f19 2fbe 82f9 823e
00000100: d863 78bf f952 273f e496 86be 2b8c 87be
00000110: c431 11bf 4df9 abbf 84d5 44bf ce5f d4be
00000120: fbc5 b1bc e866 a33d 0123 69bf d081 babf
00000130: 3bf1 0d3f f2f9 113f f802 4dbf da51 c73e
00000140: 3385 b0be 0280 0cbc 5ca7 1a3e 3398 433f
00000150: 1f5f 1dbf cd0c 5ebe 4268 ad3e 0e9c 333e
00000160: 349c 613e 7abb b6bf 5284 71bf 84cb 91bb
00000170: 41f5 393f 70c8 a0be e2fa 803d 3e51 c1bf
00000180: f695 09bf 02cc 073e c14b 0abf 1a57 a53d
00000190: 0e7e d8be 85a7 2b3f e8d8 9f3e ab69 1540
000001a0: 4095 283c 112f a03f f46c 2ebd 3040 0a3d
000001b0: 609d 0fbe 75e8 cfbd ec86 823e 0f2a 3cbe
000001c0: cc8c 063f 7238 c4be 5341 ebbe a5f9 7b3e
000001d0: a416 3a3d bb12 1b3f 0f83 7a3e 99ef 623f
000001e0: 678f 223f 9d26 30be 01a0 963c edf2 703f
000001f0: 45e5 b93e 92f6 223f d3fd e03d 77ec 3dbe
00000200: ee5b 55bf a549 383f 813f b43e a4b7 003f
00000210: f903 51bd 2340 703d 6738 e5be 14b2 fa3e
00000220: e8b2 e83e 2db5 ee3d 1f61 e93e 1c96 1abf
00000230: 840f 0140 0a22 b7be 3a98 443f 206e 2b3f
00000240: 5e23 983f 1289 9d38 3984 6a3e f313 2c3e
00000250: 2788 a3bd 9265 803f ee1a b33f 6c57 02bf
00000260: dd6e b2bd cee0 b6be 64b9 6e3d 8aa7 8b3e
00000270: b192 313d d5d3 ce3e 856a 813f 8a6f d2bd
00000280: 3c52 bbbd 6386 433f 3280 31be fb98 023e
00000290: 09e8 82bd 8eb9 793f 3980 c23f 9c30 d33f
000002a0: c9b0 a13f 1f9f 103f 831b f7bc 9b0d 733f
000002b0: 0cde 243f 01bd 2d3e 6389 3e3f 5094 febc
000002c0: 1f2b 523e c51e 71be 41a6 e53d 7e46 6b3e
000002d0: e0e5 273c 70e1 113e fc34 25bf 2ba6 9a3d
000002e0: e826 91be 9c59 43be 3ce0 b33e d576 2e3e
000002f0: 5f46 693f ca22 35bc eafd a3be 60f0 4a3f
00000300: aa3f bd3e 1bac 353f bec3 7f3c b100 4c3f
00000310: 6c47 96bf 5f76 cbbe 58ea 9cbe 96de 2e3f

sequential/dense_2/MatMul f4 [8, 10]
-0.7547636 -0.04296675 0.508167 -0.5360898 0.23800543 -0.3282352 0.8028795 0.3982258
0.25159362 1.0920542 0.39038593 1.0516744 -0.03790048 -0.0517926 -0.8153889 0.26966682
-0.82633793 -0.14047746 0.42545083 -0.43564323 -0.5797523 0.04188983 -1.1850009 1.2243193
0.8099023 0.12203385 -0.76043457 0.50982237 0.28842872 -0.8208206 0.49970937 -0.015866252
0.8324728 -0.53378344 -0.108861744 -1.2635515 -0.13308981 0.41377705 -0.90260994 1.1324573
0.1461356 -1.8257499 -0.9504012 -0.153582 -0.5884616 0.34295642 0.41253522 0.2596682
0.31390768 -0.036877077 -0.38739756 0.7008974 -0.65930396 -0.6425783 0.3073524 -1.9533811
-0.95281124 -1.0252615 0.5102455 0.57915854 -1.3703103 -0.113429315 0.38533503 0.98315966
-1.3123953 0.21396971 0.43437743 -1.8876897 -0.4174595 -0.22480814 -0.44291484 0.42524198
-1.1143837 -0.67588896 0.06664869 0.5297386 0.29156753 0.49020982 -1.8836778 -0.21615992
00000000: 3038 41bf e7fd 2fbd 3c17 023f 2e3d 09bf
00000010: b2b7 733e 720e a8be 8389 4d3f 41e4 cb3e
00000020: e1d0 803e 6fc8 8b3f aae0 c73e 449d 863f
00000030: 893d 1bbd 7a24 54bd 54bd 50bf c511 8a3e
00000040: e28a 53bf 53d9 0fbe b1d4 d93e a10c dfbe
00000050: a66a 14bf ac94 2b3d 1cae 97bf 7fb6 9c3f
00000060: c255 4f3f e2ec f93d d7ab 42bf b883 023f
00000070: eeac 933e 4d21 52bf e8d9 ff3e f1f9 81bc
00000080: f01c 553f 08a6 08bf e8f2 debd 0ebc a1bf
00000090: b248 08be 96da d33e 7211 67bf 5cf4 903f
000000a0: 92a4 153e 2cb2 e9bf 7e4d 73bf 9a44 1dbe
000000b0: 6ba5 16bf fc97 af3e d137 d33e 3bf3 843e
000000c0: 82b8 a03e 6b0c 17bd f958 c6be 036e 333f
000000d0: 25c8 28bf 0380 24bf 4b5d 9d3e 6408 fabf
000000e0: 70eb 73bf c53b 83bf 739f 023f bc43 143f
000000f0: 5466 afbf a14d e8bd a24a c53e 5ab0 7b3f
00000100: 92fc a7bf e01a 5b3e b866 de3e d19f f1bf
00000110: 40bd d5be 1b34 66be bcc5 e2be 51b9 d93e
00000120: 20a4 8ebf 0f07 2dbf 1c7f 883d f39c 073f
00000130: 5748 953e c8fc fa3e 5b1c f1bf 0759 5dbe
