model/gabesf/keypoint_classifier.tflite (tflite, 6640 bytes, 6 tensors)

dense_2/bias f4 [9]
000000 5b b9 45 3f ca 6d 54 3e 10 52 8c be 60 15 93 3e
       0.77235955 0.20745006 -0.2740636 0.28727245
000010 9d 2a aa be ab 8f d8 3d 6f db f1 3c e3 84 b0 bd
       -0.33235636 0.105742775 0.02952358 -0.08619096
000020 58 3b 17 bf
       -0.59074926

dense_1/bias f4 [10]
000000 23 eb 83 be 22 c3 54 3f b2 dc be 3d fa ab ae be
       -0.25765333 0.8311025 0.09319438 -0.34115583
000010 e6 74 0c 3f f6 ce 57 3f 63 eb 7b be 9e 77 84 3f
       0.5486587 0.8430017 -0.24601512 1.0349004
000020 75 46 81 3d 52 94 20 bf
       0.06312267 -0.6272632

dense/bias f4 [20]
000000 12 a3 78 3d 4e 20 60 bf b7 72 a2 be f3 fc ef be
       0.06070239 -0.87549293 -0.31728145 -0.46872672
000010 72 aa ae 3e 60 4d 81 3e c7 07 62 be 10 16 93 3d
       0.34114414 0.25254345 -0.2207328 0.071819425
000020 95 53 ca be 53 2c 3f be 73 1e 57 b9 72 e7 db bd
       -0.39516893 -0.18669252 -0.00020515341 -0.10737504
000030 96 13 00 bd d1 ed 1f 3d 6f 95 f0 3c c7 d3 4e bf
       -0.03126868 0.03904516 0.02936813 -0.80791897
000040 27 e0 2e 3e 57 e4 be bc f8 68 fa 3e d5 c3 04 bf
       0.17077695 -0.02330224 0.4890821 -0.51861316

sequential/dense/MatMul f4 [20, 42]
000000 c0 46 18 3e e6 b1 14 3e e3 2d f6 3d ca 17 34 3e
       0.14870739 0.14520988 0.12020471 0.175872
000010 c5 a7 82 3e ab ff a2 3d 1d 9e fe 3e ba 54 b4 3e
       0.25518623 0.07958921 0.49730006 0.3522089
000020 9d bd 4f 3f 7d 0f 74 3e 7a 65 03 bf e5 49 49 bd
       0.811487 0.23834033 -0.51326716 -0.049142737
000030 23 30 9e bd 01 43 25 3e 4c 38 c5 3e b7 e4 2c 3b
       -0.07724025 0.16138841 0.38519514 0.0026381442
000040 5f 32 d0 3e b0 ae a3 bd d4 08 9c be ed 20 81 3d
       0.4066343 -0.07992303 -0.30475485 0.06305108
000050 e0 04 a8 be 96 15 11 3d cb cd 80 bd 39 eb 87 bd
       -0.3281622 0.035420977 -0.06289252 -0.06636662
000060 24 60 b6 bd cb 79 38 be d6 1c 1e bf 9b f2 e7 bd
       -0.08905056 -0.1801521 -0.6176275 -0.1132557
000070 e9 62 5a be f6 f7 76 3d a7 7e 22 bd 64 71 ce 3c
       -0.21326794 0.060295068 -0.039671566 0.025200553
000080 e0 f0 dd be 27 4e c1 be 8a 1a a3 be d7 83 21 be
       -0.43347836 -0.37754938 -0.31856185 -0.15772949
000090 2f b2 02 bf 2a 58 c8 bc 7e 51 c4 be 26 93 40 3d
       -0.51053137 -0.024456102 -0.38343424 0.04701533
0000a0 f7 9f 23 bf 2d 5a 3c bd 56 5c 90 bd 78 ea 8a be
       -0.6391596 -0.045984436 -0.07048862 -0.2713201
0000b0 8c d9 28 3e 69 31 12 be 5f 47 17 3e ba 92 00 b9
       0.16489238 -0.14276661 0.1477332 -0.00012261691
0000c0 7e ad 6e bd ef a1 4e bd 96 8f 94 be 75 78 a3 3c
       -0.058270924 -0.0504474 -0.29015797 0.0199549
0000d0 b1 17 8b bd 2f 5a d8 be 0e f6 45 3d 0d 4a ac bd
       -0.06791628 -0.42256305 0.04833036 -0.084125616
0000e0 e2 fa a6 bd b6 1b c3 3d 24 54 0b be 69 71 c5 3c
       -0.08153321 0.0952677 -0.13606316 0.02410193
0000f0 e3 e2 ed bd e7 43 d1 be 10 e6 b8 3d aa 11 dd be
       -0.11615541 -0.40872118 0.09028256 -0.4317754
000100 f9 bf 83 3d 80 97 c7 be d8 7a c4 3e fe 97 ed be
       0.064331 -0.38982773 0.38374972 -0.46405023
000110 e5 b6 47 bd 9d 9a 1c bf 94 f7 10 3e 66 e6 07 bf
       -0.048758406 -0.6117342 0.14156944 -0.53085935
000120 a5 91 3d 3e b8 f9 f6 be cd 72 1c 3e 5a ea d7 be
       0.1851259 -0.48237395 0.15278168 -0.42170984
000130 6b 22 9c 3d d9 0a 57 bf 1e ae 2a 3d ab 99 c1 be
       0.07623752 -0.8400093 0.041669957 -0.37812552
000140 ec 83 69 bd 74 4c 41 bf a3 b5 2b 3e 7d 03 28 bf
       -0.057010576 -0.75507283 0.16768508 -0.6563032
000150 b0 25 6a be ca 02 3e 3e 0c 10 0a bf ba 58 ac be
       -0.22865939 0.18555751 -0.53930736 -0.33661443
000160 61 a3 ce be b2 40 90 bd 75 1a 71 be a0 57 cc 3b
       -0.40359023 -0.0704359 -0.23545249 0.0062360317
000170 09 a7 88 bd 30 d0 56 bd be 74 d5 be c0 1b 88 be
       -0.066724844 -0.052444637 -0.4169063 -0.26583672
000180 e1 95 66 be a5 93 1f be 39 8d a7 be de d8 a0 3e
       -0.22518112 -0.15583666 -0.32724932 0.31415457
000190 b7 df e0 be eb f1 b7 3e 26 32 6d be d6 12 df be
       -0.4392068 0.35926756 -0.23163661 -0.43569058
0001a0 8a 71 9d 3e 0c ba 4f be ad bd cf 3d d9 3a 0f 3e
       0.30750686 -0.20285815 0.101436 0.13987292
0001b0 ed 66 8d bd 9e 8f bf 3e 69 e9 26 3e 0d d8 0a bf
       -0.06904397 0.3741426 0.16299976 -0.5423592
0001c0 9d d3 08 3f f3 9a af bd 15 a4 22 3e 86 fa a2 3e
       0.53447896 -0.08574476 0.15882905 0.3183176
0001d0 28 05 a6 3e 77 a4 25 3f 7d a5 05 3e b9 75 60 be
       0.3242581 0.6470408 0.1305141 -0.21919908
0001e0 74 95 14 3f c1 28 31 3d cf 7d aa 3e 86 7a 1d 3f
       0.5804055 0.043251757 0.3329911 0.6151508
0001f0 22 72 47 3e bb c6 58 3f 78 46 52 bd 54 dd a1 bd
       0.19477132 0.8467824 -0.051336735 -0.07903543
000200 42 0c dc be ae 1e 08 bf c1 35 89 be 88 bf 05 bf
       -0.42978102 -0.53171813 -0.26798823 -0.5224538
000210 5b d2 e0 be 5e 36 f6 be fe 4a 78 be c4 03 de be
       -0.43910488 -0.48088354 -0.24247357 -0.43362248
000220 ff b4 16 3f 9f fb d4 be 3c 03 22 be 9f 63 bc bd
       0.5886993 -0.41598222 -0.15821546 -0.09198689
000230 af 61 20 be fc b0 08 3d 81 88 ce 3d 62 47 48 3d
       -0.15662263 0.03337191 0.1008463 0.0488962
000240 d6 a1 19 3f d6 95 97 be 13 73 83 bd a8 63 39 3d
       0.6001257 -0.29606503 -0.06418433 0.045261055
000250 7b 96 10 bf 3a 1f af 3e e6 9f 81 bd 48 b2 ba 3e
       -0.56479615 0.3420351 -0.06329326 0.36464143
000260 7f 16 0b 3f e5 ef 9b be 32 0e 8e bd 9a bc 4e bc
       0.543312 -0.30456463 -0.06936301 -0.012618208
000270 dc e4 bf be 70 cd c4 3e eb 92 bb bc 84 70 94 3e
       -0.37479293 0.38437986 -0.022897204 0.28992093
000280 13 bd d2 3e 83 b0 d0 be 2b 7c 02 be 26 cb 17 3d
       0.41159877 -0.40759668 -0.12742679 0.03705897
000290 dc 7b 6c be 54 fa b5 3e 8e 6a a7 3e e6 d4 b3 3e
       -0.23094124 0.35542548 0.32698482 0.35123366
0002a0 36 65 f9 bd 94 00 27 3e f1 ec 5a 3e df 0a 37 bf
       -0.121775076 0.16308814 0.21379448 -0.7150096
0002b0 5d 00 4b 3e 59 dd 35 bf 78 cb ee 3e c6 78 0d bf
       0.19824357 -0.71040875 0.4663961 -0.5526241
0002c0 03 f1 05 3f 16 90 f8 be 75 ae 12 be 2f 05 95 3e
       0.5232088 -0.4854743 -0.14324363 0.29105517
0002d0 e8 c4 05 be c8 1d 2a 3e fd f7 98 bc 11 39 0a 3e
       -0.13063395 0.16612923 -0.018672938 0.13498332
0002e0 cf 17 2a 3e 24 04 f3 3d 5a a4 1a bd 25 7b c8 3e
       0.16610645 0.11866024 -0.037754394 0.39156452
0002f0 7a 1d d0 3d 69 8b 87 3e 0e 01 7b 3d 9b d5 08 3e
       0.10161872 0.2647355 0.061280303 0.13362734
000300 f1 5a 2e 3e cc 51 5b be 7c 04 d7 bd 1c ac 4a 3f
       0.17026879 -0.21417922 -0.10498902 0.7916887
000310 77 10 ac bc 63 bf d4 3e 1d fb 01 be 71 8b 3a 3e
       -0.021003945 0.41552266 -0.12693448 0.18217255
000320 ba 00 16 be de 4e 98 bd e4 16 17 be e0 a6 50 3f
       -0.14648715 -0.07436918 -0.14754826 0.8150463
000330 3b f1 e3 3c 7b 79 02 3f 8a dd 0c 3d e8 2c f6 3d
       0.027824989 0.50966614 0.034390964 0.12020284
000340 db 46 3b bd c8 b7 9a 3c 68 e5 14 3e b8 d7 2d 3e
       -0.04572187 0.018886462 0.14540637 0.16976821
000350 b3 07 10 bf db b0 0b 3f 5c 17 d9 be 5a ca e3 3e
       -0.5626175 0.54566735 -0.42400634 0.4449032
000360 12 37 02 bf c7 d2 c2 3e be 8c 18 bf da 6b 26 3e
       -0.5086528 0.38051435 -0.59589756 0.1625208
000370 b8 60 a3 be ce 74 05 3f 02 2c 96 bd c7 31 3a 3b
       -0.31909728 0.52131355 -0.073326126 0.0028411017
000380 e0 99 0a be e8 02 84 3e f3 7b a2 bd 01 4a fa 3d
       -0.13535261 0.25783467 -0.07933798 0.122211464
000390 b4 1f 00 bf ae a9 25 3f 57 6c 3c 3e f5 df 00 be
       -0.50048375 0.64712036 0.18400703 -0.12585433
0003a0 71 f6 1b be 85 ef 38 3e 5c c3 df bd ad ee 17 3f
       -0.15230729 0.1806012 -0.10925934 0.59348565
0003b0 fa 47 6a bd 22 e0 59 3d 59 2f 99 3e 08 a2 7a 3e
       -0.05719755 0.053192265 0.29918936 0.24475873
0003c0 ad 38 b2 3e 59 14 28 3e 01 7c ca 3e 03 86 68 3f
       0.34808865 0.16414012 0.39547732 0.90829486
0003d0 3b 87 4a 3e 0f 15 c1 bd 0e 60 5c 3e 89 23 a2 3e
       0.19778149 -0.09427845 0.21521017 0.31667736
0003e0 c5 6c 19 3f c8 b7 cc 3e 22 72 0a 3f 1c 44 54 3f
       0.59931594 0.39983964 0.540804 0.82916427
0003f0 2e b5 09 3e 74 55 8f be a5 fa ad be 17 59 af bd
       0.13448021 -0.27994883 -0.3398029 -0.085619144

sequential/dense_1/MatMul f4 [10, 20]
000000 ac ec d4 be fe c2 04 3f 68 d8 af bc 79 d2 3b be
       -0.41586816 0.51860034 -0.021465495 -0.18342008
000010 ea 8f b9 be eb 67 71 be 46 26 d6 be 0a 36 ac bd
       -0.3624261 -0.23574798 -0.41826075 -0.08408745
000020 53 fd 42 3e a4 c6 2f be 35 6c 53 be b8 ed 53 3e
       0.19041948 -0.17165619 -0.20646746 0.20696151
000030 bd 12 d3 bd f4 1b 09 bc d3 57 1b 3d 45 76 83 bf
       -0.103063084 -0.008368481 0.037925553 -1.0270468
000040 94 c2 8c 3e a2 8a 0d bf 4b ba 14 be 37 01 1c 3f
       0.274922 -0.5528966 -0.1452419 0.60939354
000050 07 02 2b be 2b 30 44 3f 36 e5 1f 3f 91 df 29 3f
       -0.16699992 0.76636 0.62459123 0.6635676
000060 4d 50 46 bf df 92 0d 3e 68 4b 6e 3e 61 a0 4d be
       -0.7746628 0.13825558 0.23270953 -0.20080711
000070 eb d4 55 3e 27 63 20 3f 78 8f 7f 3f 75 67 45 be
       0.20882003 0.62651294 0.9982829 -0.19277747
000080 5a 76 2f 3f c5 d3 24 bf b5 f2 a0 be 7d 17 3a 3f
       0.68539965 -0.64385635 -0.3143517 0.7269209
000090 84 a1 a1 be c9 e5 ce be 72 fc be 3e 60 36 b3 bc
       -0.3156854 -0.40409687 0.37301975 -0.021876514
0000a0 6a 94 7f 3d 83 04 22 be bd 66 da 3e 04 6c 95 3c
       0.062397398 -0.15822034 0.42656508 0.018239982
0000b0 ec 9e 3a 3f aa 2a 36 3e 89 bb ae 3e ba de 58 3e
       0.72898746 0.17789713 0.34127453 0.21178713
0000c0 b3 9e 9a be e4 bd be bf 2b c2 83 bd f9 f3 d5 3e
       -0.30199203 -1.49017 -0.06433519 0.417877
0000d0 12 73 0b be f8 66 da 3e 11 23 ec 3e 6b dd 51 bf
       -0.13618115 0.42656684 0.46120504 -0.8197848
0000e0 24 4e 10 bd 27 f9 ef 3d 49 72 81 3e 15 49 1d bf
       -0.03523077 0.11717444 0.25282505 -0.6143964
0000f0 da a3 70 3e 82 1b 73 3e aa 26 cd 3e fd 23 e5 bd
       0.23500004 0.23740962 0.4006856 -0.11188505
000100 bf 93 ea 3b 35 23 bd 3d 6c b4 8f be 76 f3 21 3f
       0.007158726 0.09235231 -0.28067338 0.63262117
000110 a3 ad 72 3f d9 29 bb 3e 89 4d b2 be 4d f3 ac 3d
       0.947962 0.36555365 -0.3482478 0.084448434
000120 cb de 45 be 9c f3 25 3f 09 29 24 be 9f ed 0f 3f
       -0.1932327 0.64824843 -0.16031279 0.56221956
000130 81 16 93 3f 15 37 b4 3e 8e 6d 41 be e8 e3 91 3f
       1.1491243 0.35198274 -0.18889448 1.1397676
000140 70 8c b5 be a7 2e d7 be f9 1d a1 3e bf 54 eb 3b
       -0.35458708 -0.4202778 0.3146818 0.0071817334
000150 c6 2b 2a 3f 0f a6 64 3e 75 be e1 3e a0 d1 fa 3e
       0.6647304 0.22328971 0.4409062 0.48988056
000160 13 28 ba be 2d 16 21 3d ba 5e 05 bf d7 62 7c 3f
       -0.363587 0.03932779 -0.52097666 0.9858832
000170 a1 2d 2f bf a6 a7 20 3e b2 f7 fd 3d cc 9a 81 be
       -0.68429 0.15688953 0.1240076 -0.25313413
000180 b2 37 4d 3f 8a ad b8 be 17 76 20 3e e3 94 40 3d
       0.8016311 -0.360699 0.15670048 0.04701699
000190 45 62 0e 3f 8a 5e 64 3e c9 6a e3 be 10 b8 54 bd
       0.556187 0.22301689 -0.44417408 -0.05193335
0001a0 fc 30 08 3f 1e ee 59 be 44 79 ce be f0 5d 87 be
       0.53199744 -0.21282241 -0.40326893 -0.26438856
0001b0 91 1e b9 3e 81 8f 8a 3d 04 f3 4f 3e 51 74 df be
       0.36156133 0.067656524 0.20307547 -0.4364343
0001c0 ff 93 7c 3e cd 63 20 3f e3 a5 08 3f d5 c4 92 be
       0.24665831 0.62652284 0.53378123 -0.28665796
0001d0 24 ef c7 be 57 7b 1f 3f f2 4b 3e 3f bf 5d 7d bf
       -0.39049637 0.62297577 0.74334633 -0.9897117
0001e0 d5 63 f8 3e 00 a8 08 be f9 21 24 3f 31 31 c8 3e
       0.48513666 -0.13345337 0.6411434 0.3910003
0001f0 ad 2e 83 3e 58 d5 7e 3f 6c b0 85 3f 4c 6c 8c 3f
       0.25621548 0.99544287 1.0444465 1.097055
000200 da d4 ee 3e 65 6f 6b 3d 4c 48 27 3f 49 8a 6e 3e
       0.46646768 0.05747928 0.6534469 0.23294939
000210 00 56 45 bf bc 01 1e 3f a5 de 19 3c a5 9f 3e be
       -0.7708435 0.61721396 0.0093914615 -0.18615587
000220 1f 13 9f 3e 68 22 86 3e 5b 05 ca bb 90 d1 a0 3d
       0.31069276 0.26198125 -0.006165189 0.07852471
000230 a5 2a 69 3e 7f 24 6b bd 82 17 9d 3e e6 e2 53 3f
       0.22770174 -0.057407852 0.30681998 0.82768095
000240 aa 47 c4 3e 88 f6 05 bf e3 b9 36 bf d0 c8 f2 be
       0.38335925 -0.523293 -0.7137739 -0.47418833
000250 63 5e 10 bf ba 9c bf 3e a2 f0 15 be 0b dd 30 3f
       -0.5639402 0.3742426 -0.14642575 0.69087285
000260 31 45 08 bf 46 76 03 bf e5 78 de 3e c2 84 50 3e
       -0.5323058 -0.51352346 0.4345161 0.20363143
000270 2e f7 5b bf 21 87 82 bf d5 3c bd 3e 84 d7 a2 be
       -0.8592404 -1.0197488 0.36960474 -0.3180505
000280 ca 33 10 3e e9 f7 f8 3d dd 1c 74 bf ca 6e b9 be
       0.14082256 0.1215666 -0.9535654 -0.36217338
000290 74 93 72 be 5b 4f 38 3d 7f 80 36 bc a7 25 52 3e
       -0.23689061 0.044997554 -0.011139034 0.20522176
0002a0 bf 28 d2 3e 77 88 1d 3e a9 e8 f3 be 8f 4d 09 bf
       0.41046712 0.15384088 -0.47638443 -0.5363397
0002b0 f2 12 df 3e f3 64 58 3e c8 0d 11 3e 53 77 ca 3e
       0.43569142 0.21132259 0.14165413 0.39544162
0002c0 67 36 4c 3f 22 41 cb 3e 10 59 14 be 3a 73 d8 3e
       0.7977051 0.3969813 -0.144871 0.4227541
0002d0 93 ae 96 3e 89 61 bb 3e a9 33 91 3e bc a3 2a 3f
       0.29430065 0.3659785 0.28359726 0.6665609
0002e0 44 05 cc 3e eb 7e a9 3d 89 70 6c 3e ca 6e 15 3e
       0.39847767 0.08276161 0.23089804 0.14593044
0002f0 98 bf 10 bd cf 6f 10 3e 86 f4 a8 3e d7 ed 07 3f
       -0.035338968 0.14105152 0.32999057 0.5309729
000300 5c d4 fd 3d 5c 53 d4 be c1 f6 99 3f ff ac 02 3f
       0.1239402 -0.41469848 1.2028428 0.5104522
000310 0f 10 fb 3c c1 eb 2d 3f aa e0 5b 3f ab be 4e 3f
       0.030647306 0.67937857 0.85889685 0.80759686

sequential/dense_2/MatMul f4 [9, 10]
000000 1a 4e 50 bf 7e a6 51 3f 2a 29 ed be f7 f2 94 bf
       -0.81369174 0.8189467 -0.46320468 -1.1636647
000010 bb a1 84 bf 9b e2 f2 3e 06 68 40 bf 02 2a c1 3e
       -1.0361856 0.4743851 -0.7515873 0.37727362
000020 f9 ee b5 bf e9 d6 da be 72 9c 8f be 4f 38 b7 be
       -1.4213554 -0.42742088 -0.28049046 -0.35785148
000030 1a 6c 43 3f c9 f6 db bd ab 4c 6c 3f 81 c9 80 bf
       0.76336825 -0.1074043 0.92304486 -1.0061494
000040 51 c2 9e 3e ca b7 20 bf 68 c4 ab be 62 3a 94 bf
       0.31007627 -0.6278044 -0.33548284 -1.1580317
000050 3d 92 8d be 29 28 61 bf 7a 8e 0e 3f 54 ef 00 bf
       -0.27650633 -0.87951905 0.5568615 -0.50365186
000060 b4 b8 2c bf f4 50 7c 3f 2d e3 3d bd db 17 f9 be
       -0.67469335 0.98561025 -0.04635923 -0.48651013
000070 02 09 77 be 22 0f bd 3e 9b 32 7a be 96 0c 36 bf
       -0.2412453 0.36925608 -0.24433367 -0.71112955
000080 70 73 30 bf 5a f7 e7 be 62 56 60 3d 84 95 8b 3e
       -0.68926144 -0.45305902 0.05476988 0.2726251
000090 a5 aa 84 be 31 7f 87 3f 5e 1c 9f bf a2 4e c0 3e
       -0.2591144 1.0585691 -1.2430532 0.37559992
0000a0 38 93 f8 bd 9f 76 77 bf c2 ba 46 bf fc 21 13 3f
       -0.12137455 -0.96665376 -0.7762872 0.5747373
0000b0 2f 38 42 bf 26 5f a8 bd ec 9e 5b 3f 62 93 03 bf
       -0.7586698 -0.08221273 0.8578937 -0.51396763
0000c0 c5 cb 2b 3f 00 20 f6 bd 28 be d1 3e f2 0b 76 3e
       0.671078 -0.12017822 0.4096539 0.24027994
0000d0 e6 40 94 be aa 73 87 bc 2c ef 05 bf 2c 4f 3c bf
       -0.28955764 -0.016534645 -0.5231807 -0.73558307
0000e0 a0 08 47 bf 8a f5 01 3f 3b 77 4c bf 01 81 66 3f
       -0.77747536 0.5076529 -0.7986943 0.90040594
0000f0 18 c1 d2 3e 3e cf 23 3f d2 37 cb 3d a9 5a 1b be
       0.41162944 0.639881 0.09922756 -0.15171303
000100 df 5e 17 bf 04 ad 5e bf 5c 1c 1b 3f 2a f3 8c bd
       -0.59129137 -0.8698275 0.6059015 -0.06882317
000110 36 89 54 3e 95 8b 31 3b d4 4a 16 3f f1 d6 b2 3e
       0.20755467 0.0027091254 0.5870793 0.34929612
000120 1b ef 17 3e 1c f1 f8 3e f3 ee af be 2c 68 67 bf
       0.14837305 0.48621452 -0.3436199 -0.9039333
000130 63 75 08 bf 23 55 26 bf 58 35 35 3f 29 62 a1 be
       -0.5330412 -0.6497366 0.7078452 -0.31520203
000140 ae 95 3b be 7e c9 7c 3c db 33 18 3e 42 ff 20 be
       -0.18318817 0.015428899 0.14863531 -0.15722373
000150 ca 1a 5f 3e 3b 22 82 3d 74 c4 eb 3e 3a 2a cd be
       0.21787563 0.06354185 0.4604832 -0.4007128
000160 1c 7c 96 3e 44 57 41 3f
       0.29391563 0.7552378
