model/fredericomcorda/keypoint_classifier.tflite (tflite, 6764 bytes, 6 tensors)

sequential/dense/BiasAdd/ReadVariableOp f4 [20]
-0.22385699 -0.08735854 0.15408137 0.18014394 0.115429804 0.1574095 -0.096176945 -0.020925254
0.4094498 0.12934917 0.07458781 -0.06405111 -0.13963127 -0.23651515 0.072369866 0.035851438
-0.008537952 -0.07800358 -0.1984507 -0.118391216
00000000: c43a 65be 09e9 b2bd 82c7 1d3e a777 383e
00000010: 7666 ec3d f52f 213e 6bf8 c4bd 706b abbc
00000020: 67a3 d13e 1c74 043e 7ec1 983d 3a2d 83bd
00000030: 80fb 0ebe 0731 72be a736 943d f5d8 123d
00000040: c4e2 0bbc 57c0 9fbd a936 4bbe 1877 f2bd

sequential/dense_2/BiasAdd/ReadVariableOp f4 [9]
0.0018875948 0.18982314 -0.2915114 -0.13356258 -0.6544583 -0.07267552 0.47483757 0.15853132
0.19524243
00000000: 2c69 f73a ff60 423e fb40 95be a1c4 08be
00000010: 948a 27bf e7d6 94bd e91d f33e 0956 223e
00000020: a2ed 473e

sequential/dense_1/BiasAdd/ReadVariableOp f4 [10]
0.5018283 0.14724828 0.14807782 0.2705156 0.32675076 0.5177563 -0.005399121 0.39096186
0.36190027 -0.26143375
00000000: d277 003f 41c8 163e b6a1 173e 0581 8a3e
00000010: e04b a73e ad8b 043f 1ceb b0bb 272c c83e
00000020: fe4a b93e a5da 85be

sequential/dense/MatMul f4 [20, 42]
-0.2938644 0.17684227 -0.0074832216 0.6619549 -0.30011374 0.3170727 -0.22630386 0.43760526
-0.28233853 0.32294396 0.045793742 0.02849558 -0.12730004 0.1903083 -0.10573582 0.1318935
0.04524837 -0.007937252 0.15454035 0.017179973 -0.06394391 -0.025788542 -0.015271278 -0.3569013
-0.61840326 -0.8167953 -0.28218862 0.19097278 0.17998597 -0.037375547 0.517821 -0.29824978
0.11961928 -0.6673784 -0.06980555 0.10091132 0.21217886 -0.008961736 -0.096793264 0.061814804
0.33223364 0.13569595 -0.025442779 -0.030362606 -0.22397722 -0.24691004 -0.16978209 -0.048472516
-0.46823975 -0.067919776 -0.14313453 -0.090496145 0.2614424 -0.039416153 -0.034100685 0.14681733
-0.052555174 0.19531305 -0.3354392 0.3490267 0.1527312 -0.058332793 -0.49796307 0.2657399
-0.5093061 0.29479685 -0.034757134 0.37552205 -0.14157821 0.17891127 -0.46443698 -0.1445542
-0.6010818 0.11326434 -0.36522588 0.010016158 -0.22258864 -0.27104944 -0.1297219 -0.07007881
-0.0195489 -0.61816114 0.37905845 -0.5807304 -0.3104045 0.05742851 -0.114527404 0.035906963
-0.18533757 -0.15552573 -0.12528767 -0.27614477 -0.040257487 -0.1878386 -0.6904612 -0.10392854
-0.36745206 0.013496515 -0.07500527 -0.34378275 -0.2007781 -0.37277007 -0.28087726 -0.17958206
0.045102045 0.00040257288 0.030693814 0.015458043 0.13994855 0.103706166 0.24831894 -0.024852792
0.6564582 -0.106402986 0.25718978 0.29529175 0.3125156 0.56848204 0.35985932 0.034522578
0.23719542 0.1715069 -0.16223557 0.53419393 -0.30883852 0.61342907 -0.023549706 -0.2186657
0.004788738 0.04726185 0.040702287 -0.65286267 0.1948866 -0.62871444 0.61802965 -0.4812912
-0.08678411 0.0035335072 0.2185287 -0.19772033 0.70338154 -0.50865984 0.6258822 -0.67131597
0.30776045 -0.071471095 0.1884802 0.029363863 0.6751511 -0.16812843 0.39753142 -0.1414554
0.5977519 0.13554186 0.60016257 -0.11328609 0.07130641 0.17325383 0.4202975 0.00061293005
0.35789454 0.12739873 0.0718075 -0.21745321 -0.22831994 0.1685794 -0.23944427 0.20043333
0.08396506 0.29689223 0.045482207 0.79364365 -0.18187676 0.540152 -0.17838359 0.12516609
0.22195101 0.53996754 0.1164422 0.50307083 -0.040851336 0.57576704 0.21050727 0.43034697
-0.021945752 0.5416008 0.14055552 -0.12990634 0.24577756 0.43599346 -0.051895957 0.077209
0.18277666 0.0901487 0.03995355 0.009584932 0.2964871 0.34686574 0.33198902 0.44575185
0.27898887 0.04382574 0.6749173 0.11024855 0.2133369 0.0679382 0.1793124 0.3594904
0.40324444 0.21400319 0.06289747 -0.2343103 0.5324611 -0.8061059 0.33297932 -0.4610111
0.58446676 -0.3145444 0.48862964 -0.1577141 0.60239226 0.0031846864 0.18831281 -0.0119273
0.15621297 0.10356683 0.1549697 0.1918793 0.6317171 0.08526357 -0.19587319 -0.064698376
0.21110092 0.2335602 0.37511194 0.29332697 0.117787085 -0.042964973 -0.6169138 -0.20608371
-0.47801727 0.1953375 -0.3916516 0.2740014 -0.011995006 -0.15241897 0.09811872 -0.48409423
-0.026926095 -0.49103647 -0.33455506 -0.37753013 -0.20372103 -0.22147831 0.49631974 -0.32160792
00000000: 6575 96be 2416 353e d035 f5bb e075 293f
00000010: 82a8 99be 5a57 a23e 33bc 67be cc0d e03e
00000020: ad8e 90be e958 a53e 3892 3b3d 906f e93c
00000030: f15a 02be 2ee0 423e 068c d8bd 170f 073e
00000040: 5b56 393d 3f0b 02bc d33f 1e3e 04bd 8c3c
00000050: 06f5 82bd 7e42 d3bc 6234 7abc c4bb b6be
00000060: ad4f 1ebf 7f19 51bf 077b 90be 5e8e 433e
00000070: 3e4e 383e 1a17 19bd eb8f 043f 32b4 98be
00000080: f4fa f43d 50d9 2abf 36f6 8ebd 98aa ce3d
00000090: 6a45 593e 3fd4 12bc 8c3b c6bd 8531 7d3d
000000a0: 871a aa3e e1f3 0a3e 606d d0bc 00bb f8bc
000000b0: 495a 65be fcd5 7cbe 5bdb 2dbe 1e8b 46bd
000000c0: 1fbd efbe 8619 8bbd dc91 12be 0b56 b9bd
000000d0: c7db 853e d572 21bd 29ad 0bbd 4857 163e
000000e0: 1844 57bd 2500 483e b0be abbe a1b3 b23e
000000f0: 9165 1c3e 5eee 6ebd 04f5 febe 0f0f 883e
00000100: e261 02bf 9def 963e 7f5d 0ebd 6d44 c03e
00000110: e1f9 10be 8434 373e afca edbe 0406 14be
00000120: 7fe0 19bf 22f7 e73d e3fe babe d01a 243c
00000130: 47ee 63be fec6 8abe d1d5 04be 7b85 8fbd
00000140: 0425 a0bc cf3f 1ebf f313 c23e bfaa 14bf
00000150: 57ed 9ebe 283a 6b3d 588d eabd 2e13 133d
00000160: 22c9 3dbe 2342 1fbe 694b 00be d962 8dbe
00000170: 09e5 24bd c358 40be 11c2 30bf 7dd8 d4bd
00000180: ad22 bcbe 7d20 5d3c 5d9c 99bd 4b04 b0be
00000190: c698 4dbe b8db bebe 25cf 8fbe 5ce4 37be
000001a0: ecbc 383d 6b10 d339 9871 fb3c bb43 7d3c
000001b0: ac4e 0f3e e663 d43d 5247 7e3e 1598 cbbc
000001c0: a50d 283f cfe9 d9bd 61ae 833e 7b30 973e
000001d0: 0b02 a03e 0a88 113f 7b3f b83e 8c67 0d3d
000001e0: 5be3 723e 819f 2f3e 1521 26be efc0 083f
000001f0: 1520 9ebe b009 1d3f 50eb c0bc e7e9 5fbe
00000200: d9ea 9c3b a495 413d 71b7 263d 0222 27bf
00000210: 5a90 473e 6ef3 20bf 3137 1e3f cd6b f6be
00000220: debb b1bd 6a92 673b fdc5 5f3e 3377 4abe
00000230: d010 343f 8837 02bf d139 203f 5ddb 2bbf
00000240: c792 9d3e 705f 92bd f400 413e 7c8c f03c
00000250: b4d6 2c3f dc29 2cbe 3d89 cb3e afd9 10be
00000260: 4506 193f 7ccb 0a3e 41a4 193f 8a02 e8bd
00000270: 1809 923d 7469 313e 3c31 d73e 0aad 203a
00000280: f43d b73e d074 023e d00f 933d 0eac 5ebe
00000290: b4cc 69be 14a0 2c3e e130 75be 653e 4d3e
000002a0: e0f5 ab3d 4202 983e 8d4b 3a3d 3b2c 4b3f
000002b0: e73d 3abe 6747 0a3f 30aa 36be 8a2b 003e
000002c0: 2047 633e 503b 0a3f 4079 ee3d 40c9 003f
000002d0: bb53 27bd 7865 133f 388f 573e 7056 dc3e
000002e0: 94c7 b3bc 5aa6 0a3f c9ed 0f3e 2b06 05be
000002f0: 1dad 7b3e 893a df3e db90 54bd c11f 9e3d
00000300: ce29 3b3e e29f b83d 55a6 233d 1e0a 1d3c
00000310: 28cd 973e 6398 b13e 77fa a93e 9639 e43e
00000320: a1d7 8e3e 9f82 333d 61c7 2c3f fec9 e13d
00000330: fd74 5a3e 2f23 8b3d ab9d 373e 200f b83e
00000340: 0e76 ce3e a723 5b3e 64d0 803d 0aef 6fbe
00000350: 5f4f 083f f55c 4ebf 447c aa3e a609 ecbe
00000360: 9d9f 153f f70b a1be aa2d fa3e ce7f 21be
00000370: 6136 1a3f 2cb6 503b 13d5 403e b96a 43bc
00000380: 4bf6 1f3e d91a d43d 61b0 1e3e 027c 443e
00000390: 36b8 213f ab9e ae3d fb92 48be 9580 84bd
000003a0: d72a 583e 682a 6f3e ac0e c03e f42e 963e
000003b0: 5b3a f13d 0afc 2fbd 10ee 1dbf 9c07 53be
000003c0: aebe f4be 8e06 483e 8f86 c8be e949 8c3e
000003d0: b486 44bc b813 1cbe 78f2 c83d 33db f7be
000003e0: 1d94 dcbc 2269 fbbe cd4a abbe a14b c1be
000003f0: 3f9c 50be 36cb 62be 9f1d fe3e cba9 a4be

sequential/dense_1/MatMul f4 [10, 20]
-0.17256145 0.85098076 0.7804018 -0.026027616 -0.30528238 0.124841236 -0.4876809 0.037336197
-0.15552214 0.42069665 0.32189086 -0.43288022 0.32432368 0.2118046 -0.033746663 -0.4671393
-0.100395754 -0.33737212 -0.42218193 0.68400973 -0.5107898 0.31115204 0.034247067 -0.06263983
-0.22191647 -0.12597686 0.101176195 0.11772607 0.21845806 -0.43822742 -0.19507515 0.540366
0.057924613 -0.61731035 0.08532857 -0.60958654 -0.5790116 0.21678956 0.5758707 0.5667829
-0.64800864 -0.28836155 0.40616333 0.20989357 0.33671162 0.38671422 0.010454936 0.29384482
-0.59733593 -0.15165257 0.48129964 0.22079638 -0.89852333 -0.82708323 0.24174377 0.17223567
0.47103757 0.11885323 0.26868984 0.19409162 0.30759028 0.21237214 -0.22660424 -0.18103768
0.4810379 -0.1395718 -0.0060796137 0.4871779 0.3542689 -0.2273334 -0.612353 0.0020206727
0.41760957 0.22432205 -0.11572071 0.51403165 0.15813765 -0.044886447 0.14094631 0.052348893
0.99477726 -0.07493554 -0.18123984 0.1637073 -0.6109259 -0.6810931 -0.58496296 0.3327031
-0.8001323 0.26079872 -0.046032477 -0.28656858 0.57161504 0.49434525 -0.4475451 -0.47223362
-0.10613133 -0.5301053 -0.39709827 0.2630146 0.60919523 -0.27287346 0.92323905 0.3536172
0.21424437 -0.6628736 -0.606446 0.19052199 0.7623291 0.22830236 0.22555007 0.4218249
0.24401487 -0.26157796 -0.05146941 0.34495345 0.27583393 -0.43449274 0.21853036 0.26079407
-0.028966816 1.053251 -0.5155653 0.11950907 0.17891262 1.0435215 0.086785056 0.3841166
-0.14619054 -0.13313071 -0.0636238 0.6865472 0.2236356 0.59079725 0.7661939 -0.67137027
-0.64759386 0.36484224 0.45816 0.20895642 -0.15040864 -0.18373196 0.33658108 0.86362064
-0.53773385 0.8953093 0.5216043 0.59391016 -0.46405995 0.5602916 0.68152577 0.21235509
0.015411715 -0.11858067 0.7670909 -0.097457565 -0.3321589 0.5209693 0.037583336 0.18862993
0.5249431 0.2642224 0.106508054 -0.21715987 0.37568882 0.24549335 -0.19933422 -0.26472902
0.66460776 -0.3075316 -0.5637736 0.673733 0.3890811 -0.17804877 -0.13520059 0.6078813
0.56509674 -0.04191732 0.3931172 0.008340579 -0.18515335 0.32057908 0.3144121 -0.11742212
0.6497843 0.6163368 -0.11835607 -0.11249527 -0.092248805 -0.67253447 0.25583526 0.30331472
0.24067867 -0.38402385 -0.048215315 0.23191562 0.84453243 -0.12651215 0.10852069 0.10207554
00000000: f3b3 30be e0d9 593f 6ac8 473f de37 d5bc
00000010: f94d 9cbe c3ac ff3d 50b1 f9be d7ed 183d
00000020: 3241 1fbe 8d65 d73e e1ce a43e 7aa2 ddbe
00000030: c10d a63e 4ee3 583e f139 0abd e22c efbe
00000040: 4a9c cdbd 0abc acbe 3b28 d8be 431b 2f3f
00000050: 1fc3 02bf 524f 9f3e a746 0c3d 5049 80bd
00000060: 123e 63be 1400 01be 7735 cf3d 5e1a f13d
00000070: 78b3 5f3e 585f e0be c8c1 47be 6d55 0a3f
00000080: 5c42 6d3d 0d08 1ebf bfc0 ae3d dd0d 1cbf
00000090: 1b3a 14bf 15fe 5d3e 436c 133f af18 113f
000000a0: e5e3 25bf 20a4 93be a4f4 cf3e 57ee 563e
000000b0: 7765 ac3e 68ff c53e 2e4b 2b3c d472 963e
000000c0: 02eb 18bf d04a 1bbe e86c f63e 7218 623e
000000d0: a005 66bf babb 53bf ae8b 773e 8c5e 303e
000000e0: d62b f13e 5269 f33d b791 893e f4bf 463e
000000f0: 797c 9d3e 1578 593e f10a 68be f161 39be
00000100: 9a4a f63e e9eb 0ebe 7f37 c7bb 626f f93e
00000110: bc62 b53e 16ca 68be 2bc3 1cbf 436d 043b
00000120: ecd0 d53e aeb4 653e fbfe ecbd 9497 033f
00000130: d6ee 213e dada 37bd 3b54 103e cb6b 563d
00000140: b9a9 7e3f ce77 99bd f096 39be e3a2 273e
00000150: a465 1cbf 1e5c 2ebf 22c0 15bf 1058 aa3e
00000160: 78d5 4cbf 6987 853e 8d8c 3cbd 1eb9 92be
00000170: 5d55 123f d21a fd3e a224 e5be 9bc8 f1be
00000180: 625b d9bd fbb4 07bf 7750 cbbe daa9 863e
00000190: 38f4 1b3f 12b6 8bbe 6559 6c3f 500d b53e
000001a0: e062 5b3e 16b2 29bf 0c40 1bbf 3218 433e
000001b0: 0028 433f 18c8 693e 99f6 663e 6ff9 d73e
000001c0: 09df 793e 8ced 85be 97d1 52bd bd9d b03e
000001d0: 1b3a 8d3e d575 debe 6cc6 5f3e cd86 853e
000001e0: d14b edbc eed0 863f 16fc 03bf 2cc1 f43d
000001f0: df34 373e 1d92 853f 5dbc b13d eeaa c43e
00000200: f9b2 15be 6b53 08be 324d 82bd 8fc1 2f3f
00000210: bb00 653e 7d3e 173f 4925 443f ecde 2bbf
00000220: b6c8 25bf 9acc ba3e f393 ea3e acf8 553e
00000230: b904 1abe 3b24 3cbe 5b54 ac3e 3e16 5d3f
00000240: eda8 09bf fe32 653f dc87 053f 7f0a 183f
00000250: 4499 edbe 456f 0f3f 7978 2e3f 9d73 593e
00000260: 6b81 7c3c 6cda f2bd 1260 443f d597 c7bd
00000270: bb10 aabe 3e5e 053f fcf0 193d 3428 413e
00000280: ac62 063f 2948 873e e520 da3d 285f 5ebe
00000290: 495a c03e 9c62 7b3e 451e 4cbe 908a 87be
000002a0: bc23 2a3f c874 9dbe 7753 10bf c479 2c3f
000002b0: a335 c73e 6b52 36be 0672 0abe 1c9e 1b3f
000002c0: 2eaa 103f 7fb1 2bbd a846 c93e eda6 083c
000002d0: d798 3dbe f122 a43e 9ffa a03e 027b f0bd
000002e0: 4458 263f 40c8 1d3f ab64 f2bd ec63 e6bd
000002f0: f1ec bcbd 382b 2cbf d7fc 823e 114c 9b3e
00000300: 7874 763e c69e c4be 6c7d 45bd 4a7b 6d3e
00000310: 4733 583f 678c 01be 1840 de3d fb0c d13d

sequential/dense_2/MatMul f4 [9, 10]
0.5463628 -0.25578174 -0.30992597 0.011093506 0.28077704 0.60277665 -1.155951 0.31742167
-0.6522774 -0.103174806 0.42273962 -0.17611374 0.72180915 -0.74750346 -0.55430734 0.58562595
-0.87777734 0.3051795 -1.0232847 -0.51624703 0.027547566 -0.5094666 -0.024699247 0.7840812
-0.95821583 0.511221 -0.43066192 -0.8404851 0.2578238 0.63865685 0.32826445 0.89721024
-0.9157929 -0.27720743 -0.9505276 0.71530324 -0.035534684 -0.74348164 -0.12938777 0.015935147
-0.9180762 0.51811486 0.51084465 -0.73184705 -0.3855208 -0.38772333 -0.16334215 0.5291317
-0.7764831 0.5914626 0.04261615 -0.74436396 -0.4718616 -0.22975983 0.4084681 0.45412368
0.0717194 0.13959962 -0.7027524 -0.8185892 -0.9420403 -0.3362111 0.04021134 0.065444514
-0.5558586 -0.24239978 -0.02097199 0.6213036 0.43397307 -0.48596177 0.25267515 0.009276072
-0.14168082 0.7579171 0.50930834 -0.18529609 -0.012144766 -0.6947187 -0.31589383 -0.40648028
0.77153516 -0.607742 -0.28470367 -0.3934731 -0.426246 -0.44421503 0.14746627 0.40855813
-0.27199978 -0.5276343
00000000: 6fde 0b3f d3f5 82be 9eae 9ebe 89c1 353c
00000010: 02c2 8f3e 924f 1a3f 34f6 93bf 1885 a23e
00000020: a7fb 26bf 504d d3bd 5471 d83e 2957 34be
00000030: 7cc8 383f 635c 3fbf 16e7 0dbf 95eb 153f
00000040: 04b6 60bf 7d40 9c3e fefa 82bf c428 04bf
00000050: 6fab e13c 676c 02bf 1356 cabc 8cb9 483f
00000060: a24d 75bf 61df 023f b87f dcbe 082a 57bf
00000070: 7b01 843e 047f 233f 4712 a83e 92af 653f
00000080: 6771 6abf 22ee 8dbe c755 73bf 1d1e 373f
00000090: d18c 11bd d054 3ebf 3a7e 04be 6d8a 823c
000000a0: 0b07 6bbf 2da3 043f b7c6 023f 545a 3bbf
000000b0: fb62 c5be ac83 c6be 2a43 27be 2d75 073f
000000c0: 99c7 46bf 186a 173f 468e 2e3d a38e 3ebf
000000d0: d897 f1be 2946 6bbe bb22 d13e e682 e83e
000000e0: 9fe1 923d 34f3 0e3e 95e7 33bf 108f 51bf
000000f0: 8e29 71bf dc23 acbe a5b4 243d c607 863d
00000100: c04c 0ebf a637 78be 73cd abbc c10d 1f3f
00000110: b831 de3e fbcf f8be a35e 813e aafa 173c
00000120: c714 11be db06 423f 0862 023f 42be 3dbe
00000130: d7fa 46bc 16d9 31bf d6bc a1be 2f1e d0be
00000140: 5483 453f fb94 1bbf aec4 91be 4e75 c9be
00000150: ea3c dabe 2770 e3be 6601 173e 882e d13e
00000160: 8e43 8bbe 0b13 07bf
