model/mariuccatalin/keypoint_classifier.tflite (tflite, 6764 bytes, 6 tensors)

sequential/dense/BiasAdd/ReadVariableOp f4 [20]
0	0xbf18eba9	-0.5973459
1	0xbeed7c03	-0.46383676
2	0xbf2a4387	-0.6650929
3	0xbf3e10c7	-0.7424435
4	0x3f57cac7	0.8429379
5	0xbed5cc56	-0.41757458
6	0xbfb02433	-1.3761047
7	0x3e8e2823	0.27764997
8	0xbf4d6077	-0.8022532
9	0xbe41b4b7	-0.18916593
10	0xbf9a6a28	-1.2063646
11	0xbec5ee56	-0.38658398
12	0xbf6aaf33	-0.9167358
13	0xbf1076ef	-0.5643148
14	0xbe8e47ea	-0.2778924
15	0xbef27fea	-0.47363216
16	0x3e2accb3	0.16679649
17	0xbee8ed41	-0.4549351
18	0xbecef299	-0.40419462
19	0xbebe0895	-0.37115923

sequential/dense_2/BiasAdd/ReadVariableOp f4 [9]
0	0xbea59403	-0.32339486
1	0xbd9c075b	-0.076185904
2	0x3f48bc43	0.78412265
3	0xbeabacb9	-0.33530214
4	0x3ecfdd49	0.40598515
5	0x3d8d040a	0.06885536
6	0x3e23b1f7	0.15985857
7	0xbefda3aa	-0.49538928
8	0xbed4cd0a	-0.41562682

sequential/dense_1/BiasAdd/ReadVariableOp f4 [10]
0	0x3e91c941	0.28473857
1	0x3f8df9cf	1.109186
2	0x3f654bb3	0.8956863
3	0x3e88b2ab	0.26698813
4	0x3f673e3e	0.9032935
5	0x3dbf9e71	0.09356392
6	0xbea9822a	-0.3310712
7	0xbe922df8	-0.28550696
8	0x3f845fd9	1.034175
9	0x3e3b5819	0.18295325

sequential/dense/MatMul f4 [20, 42]
0	0xbe06aed0	-0.13152623
1	0x3dd39400	0.10330963
2	0x3f2f77f1	0.6854239
3	0xbf1b2b7b	-0.6061322
4	0x3f256765	0.6461089
5	0xbeddb780	-0.43304062
6	0x3f595c2e	0.8490628
7	0xbed33118	-0.41248393
8	0x3fa27aae	1.2693689
9	0xbe2c60f5	-0.16833861
10	0xbdcca2a7	-0.09991961
11	0xbe3a1b75	-0.18174537
12	0xbdef9565	-0.116984166
13	0xbcc99b90	-0.02461031
14	0xbe666285	-0.2249852
15	0x3d21c390	0.039493144
16	0xbe51bbc6	-0.20481786
17	0xbca9b8da	-0.020718027
18	0x3de86ffe	0.11349486
19	0xbd9bc69c	-0.07606241
20	0xbd1bb4a8	-0.038014084
21	0x3c7a2444	0.015267435
22	0x3da65f09	0.08123595
23	0x3db063ec	0.086128086
24	0x3e1d2ba8	0.15348685
25	0x3db66974	0.08906832
26	0x3e046ae8	0.12931406
27	0xbd4998b6	-0.049217902
28	0xbe2f0619	-0.1709217
29	0x3cc6f5c6	0.024287116
30	0xbe910cf6	-0.283302
31	0x3d71ce42	0.059034593
32	0xbe823712	-0.2543264
33	0x3a9694ff	0.0011488496
34	0x3e2ec7db	0.17068426
35	0x3da8d8bf	0.08244466
36	0xbe9eb75c	-0.30999267
37	0x3e0f99f7	0.14023577
38	0xbf3a3adc	-0.7274606
39	0x3e3a034e	0.18165323
40	0xbf5e734e	-0.8689469
41	0x3e368b33	0.17826538
42	0x3e5423f0	0.20716834
43	0x3e0e969e	0.13924643
44	0x3dfb4653	0.12269273
45	0x3ee809b9	0.45319918
46	0x3b9138ae	0.0044318056
47	0x3e8f1ceb	0.2795175
48	0xbe6dd631	-0.23226239
49	0x3e510628	0.20412505
50	0xbe9ec959	-0.3101299
51	0x3e8204e4	0.25394356
52	0x3e131d15	0.14366563
53	0x3e0aaefc	0.13543314
54	0x3ce92da5	0.028464148
55	0x3da72361	0.08161045
56	0x3cebee7b	0.02880024
57	0x3d6f5bf2	0.058437295
58	0xbc5e6705	-0.013574366
59	0xbd0be65c	-0.034155235
60	0x3e1bf604	0.15230566
61	0x3dfa24ba	0.12214036
62	0x3ced377d	0.028957123
63	0x3d9cf805	0.076644935
64	0x3dd386b6	0.103284284
65	0xbd0a0c63	-0.03370322
66	0x3e9fce0b	0.31211886
67	0x3d842c03	0.06453707
68	0x3cb541ff	0.022126196
69	0x3e07fe6c	0.13280648
70	0xbd41ca68	-0.04731217
71	0x3d301435	0.04298802
72	0x3d802578	0.062571466
73	0xbe38dcf7	-0.18053041
74	0x3f041a27	0.51602405
75	0xbffb0f89	-1.9614116
76	0xbdbe0f08	-0.09280211
77	0x3e1bc5fb	0.15212242
78	0xbde6aba4	-0.112632066
79	0x3d80600e	0.06268321
80	0xbd81af41	-0.06332255
81	0xbc90777b	-0.017635098
82	0xbdc07d2a	-0.09398873
83	0xbccfbf80	-0.025359869
84	0xbe406ce1	-0.18791534
85	0xbe8e7569	-0.27823952
86	0x3ee6b9bd	0.45063582
87	0x3f02bfc0	0.5107384
88	0x3eb9c0eb	0.36279997
89	0x3d918be8	0.07106763
90	0x3f08495a	0.53236926
91	0xbdf698c7	-0.12040859
92	0x3f3627b0	0.7115431
93	0xbdce8273	-0.10083475
94	0xbe5fc47b	-0.21852295
95	0xbcf9c959	-0.030491518
96	0x3cb0c57b	0.021578541
97	0x3d1f99b3	0.03896494
98	0x3dc7e46f	0.09760367
99	0xbc6b0705	-0.014344935
100	0x3e072e52	0.13201264
101	0xbd71f7d0	-0.059074223
102	0xbe251dd7	-0.16124664
103	0xbda36745	-0.079786815
104	0xbda2e82d	-0.0795444
105	0xbc79cccb	-0.01524658
106	0xbe112da6	-0.1417757
107	0xbd192d80	-0.037396908
108	0xbe50f6e5	-0.20406683
109	0x3d999d54	0.07500711
110	0x3c2647a4	0.010148916
111	0xbd241d59	-0.04006705
112	0xbe0c51f2	-0.13703135
113	0xbad29b84	-0.0016068076
114	0xbeed9af8	-0.46407294
115	0xbc5d61fd	-0.013512132
116	0xbf486b5b	-0.7828881
117	0x3dfa76ca	0.122296885
118	0x3e8654c6	0.26236552
119	0x3b35958b	0.0027707543
120	0xbe188552	-0.14894608
121	0x3d9ca422	0.07648493
122	0xbf271118	-0.6526046
123	0x3e16c6b6	0.1472424
124	0xbf6a17cc	-0.9144256
125	0x3e611c87	0.21983539
126	0xbd1188a0	-0.035530686
127	0xbe5a1225	-0.21295984
128	0xbee5a1bf	-0.44849965
129	0x3e9a377a	0.3012045
130	0xbdcb631e	-0.099310145
131	0x3d590809	0.05298618
132	0xbe5fd5ce	-0.21858904
133	0x3d9df8d3	0.07713475
134	0xbe608729	-0.2192656
135	0x3e28682f	0.16445993
136	0xbd2b7312	-0.041857786
137	0xbd268ea3	-0.040663373
138	0x3da8bf47	0.08239608
139	0x3db724e0	0.0894258
140	0x3e2477ac	0.16061276
141	0x3e305758	0.17220819
142	0x3e453995	0.19260247
143	0x3d961009	0.07327277
144	0x3bfed706	0.0077770976
145	0xbd849233	-0.06473198
146	0x3e0410d6	0.12897047
147	0x3da4503c	0.08023116
148	0x3e279194	0.16364127
149	0x3d85f209	0.06540305
150	0x3daad53f	0.08341455
151	0xbc0ccd0c	-0.008593809
152	0xbcaeba62	-0.021329109
153	0xbbd6c4f2	-0.0065542394
154	0x3dc378cc	0.095445246
155	0x3cf9635f	0.030442892
156	0xbde10326	-0.10986929
157	0xbdde3f3a	-0.10851903
158	0xbeb573e8	-0.35439992
159	0xbdae5371	-0.08512009
160	0xbd99dbeb	-0.07512649
161	0xbd76665b	-0.060156208
162	0xbda3e0a3	-0.080018304
163	0xbe7ca8bb	-0.2467374
164	0xbe728478	-0.23683345
165	0xbf8c388d	-1.0954758
166	0xbf5c3277	-0.86014503
167	0xbfa8e6d7	-1.3195447
168	0xbddc1cc0	-0.10747671
169	0xbe17e174	-0.14832097
170	0xbe5b8d44	-0.21440607
171	0x3f074bba	0.52849925
172	0xbe7a02bd	-0.24415107
173	0x3d3f33a3	0.046680104
174	0xbf21fe17	-0.63278335
175	0xbe2a76ab	-0.1664683
176	0xbf8bb2b2	-1.0913908
177	0xbded89db	-0.115985595
178	0xbe01c52a	-0.12672868
179	0x3d45aef2	0.048262544
180	0x3e1be749	0.15224947
181	0x3bac18e5	0.005251991
182	0x3e85ce88	0.26134133
183	0xbc82dc51	-0.015974196
184	0x3e95afff	0.29235837
185	0xba98ed4b	-0.0011667399
186	0xbd558ff7	-0.05213925
187	0x3daa1e7a	0.08306594
188	0x3de92f03	0.1138592
189	0x3df5c39e	0.12000202
190	0x3e2ced24	0.16887337
191	0x3e8289fc	0.254959
192	0x3e49c92d	0.19705649
193	0x3eb7a5b5	0.35868612
194	0xbe44383e	-0.1916208
195	0x3da1f77f	0.07908534
196	0x3e4085dc	0.18801063
197	0x3e1a1b34	0.1504944
198	0x3e9e62b1	0.3093467
199	0x3eaeb7e3	0.3412467
200	0x3ed3710b	0.41297182
201	0x3ec155bd	0.37760726
202	0x393e6a78	0.00018159475
203	0x3d9e5af4	0.07732192
204	0x3d56b394	0.052417353
205	0x3e1df6f6	0.1542624
206	0x3e544f59	0.20733394
207	0x3e8dcf4f	0.27697226
208	0x3e558ead	0.20855208
209	0x3e7b004d	0.24511833
210	0x3e07591e	0.1321759
211	0x3d3d54d8	0.04622349
212	0x3f223051	0.63354975
213	0xbe33d6e4	-0.17562443
214	0x3eec0597	0.46098015
215	0xbd09914f	-0.033585843
216	0x3c87904a	0.016548295
217	0x3c9cc79f	0.019138156
218	0xbe8ac60d	-0.27104226
219	0x3e041972	0.12900332
220	0x3ecaa1c0	0.3957653
221	0xbd977ba2	-0.07396628
222	0x3ef7eb48	0.48421693
223	0xbe531794	-0.20614463
224	0x3ef41df9	0.47679117
225	0xbe646705	-0.22304924
226	0x3ee75262	0.4518004
227	0xbe6b4631	-0.22975995
228	0x3e7d232a	0.24720445
229	0xbe0204a7	-0.12697087
230	0x3e421152	0.1895192
231	0xbe0453a2	-0.12922528
232	0x3dbe8975	0.093035616
233	0xbe06c859	-0.13162364
234	0x3db77ae9	0.0895899
235	0xbe241f88	-0.16027653
236	0x3dd5c0fb	0.10437199
237	0xbe2700f7	-0.16308962
238	0xbe1881c4	-0.14893252
239	0xbd424129	-0.047425423
240	0xbef8522b	-0.4850019
241	0x3da132b2	0.078709975
242	0xbf25af6a	-0.64720786
243	0x3d4cdfbe	0.050018065
244	0xbdab0299	-0.08350105
245	0xbe023993	-0.12717275
246	0xbe75beed	-0.23998614
247	0x3cc7ff30	0.024413675
248	0xbe6a5f91	-0.22888018
249	0x3d95469b	0.072888575
250	0xbe1e43bb	-0.15455525
251	0x3dc1a081	0.09454442
252	0x3d766f20	0.06016457
253	0xbe9e36be	-0.3090114
254	0xbf27b2b4	-0.65507054
255	0xbf4bd5ef	-0.7962331

sequential/dense_1/MatMul f4 [10, 20]
0	0x3c5c8a5f	0.013460725
1	0xbf4a43c3	-0.79009646
2	0xbf2732d6	-0.65311944
3	0x3f6c44aa	0.92292273
4	0xbf168c37	-0.588077
5	0x3e26747e	0.16255376
6	0x3e6e4d00	0.2327156
7	0xbf4a3308	-0.7898412
8	0xbf089865	-0.53357536
9	0xbd684d07	-0.056714084
10	0xbec61fa1	-0.38696006
11	0x3ed14234	0.4087082
12	0x3e5fd327	0.21857892
13	0xbd0042c9	-0.03131369
14	0x3ee7e42e	0.45291275
15	0xbf5ac0a1	-0.8545018
16	0x3db4f9be	0.08836697
17	0x3eed9a52	0.464068
18	0x3eb9a776	0.36260575
19	0x3f75e85a	0.96057665
20	0x3dade83e	0.08491562
21	0x3ec81763	0.39080343
22	0xbd9e4d86	-0.0772963
23	0xbe423ad3	-0.18967752
24	0x3e815c4e	0.25265735
25	0x3f17fa5d	0.593664
26	0xbe7846d3	-0.24245767
27	0x3e7f88ef	0.2495458
28	0xbecbb9b2	-0.39790112
29	0x3e87de53	0.26536807
30	0x3d6de93d	0.05808376
31	0x3fc44893	1.5334648
32	0xbf0dcd76	-0.55391634
33	0x3f0dc379	0.5537639
34	0x3fb7dc9c	1.43642
35	0xbd882b51	-0.06648887
36	0x3e82fde5	0.2558433
37	0x3c3dc60d	0.0115828635
38	0x3ef06323	0.46950635
39	0xbe2415d3	-0.1602395
40	0x3f0c26f4	0.5474694
41	0xbf1a51db	-0.6028115
42	0xbe3a4ba1	-0.18192913
43	0x3eac0f1a	0.33605272
44	0x3f2f4293	0.6846096
45	0x3e99318b	0.2992061
46	0x3f2df50a	0.67952025
47	0x3f1fc845	0.6241496
48	0x3f91fd82	1.140549
49	0x3f422014	0.758302
50	0x3e07f94a	0.1327869
51	0x3f5d8ff7	0.865478
52	0x3f80ff1a	1.0077851
53	0xbe86930f	-0.26284072
54	0x3f450bf5	0.7697137
55	0x3f1d8cd9	0.6154304
56	0x3f3c940b	0.73663396
57	0x3da3cfcb	0.07998618
58	0xbece5f6e	-0.40307182
59	0x3e87d0a9	0.26526383
60	0xbf4d470a	-0.8018652
61	0xbe95437b	-0.29153046
62	0xbeefbc3f	-0.46823308
63	0x3e1edf81	0.15514947
64	0x3f0cbf16	0.54979074
65	0xbe6bbb74	-0.23020726
66	0xbd00726a	-0.031359114
67	0xbfc3cf13	-1.5297569
68	0x3f13635a	0.57573473
69	0xbdd2433b	-0.102667294
70	0x3e803abd	0.25044814
71	0xbfe9df21	-1.8271219
72	0xbdadf2a8	-0.08493549
73	0xbe090850	-0.13382077
74	0xc014bd4a	-2.3240533
75	0xbea8e3e3	-0.32986364
76	0xbe07fbfb	-0.13279717
77	0x3f2c9083	0.6740801
78	0xbe52f2e3	-0.20600466
79	0x3f96786c	1.17555
80	0x3e38d01f	0.18048142
81	0xbeff7293	-0.498921
82	0x3d7c2d20	0.061566472
83	0x3ec53160	0.38514233
84	0x3c60a858	0.013712011
85	0x3e9d0192	0.3066526
86	0x3e955846	0.2916891
87	0xbd19a736	-0.03751298
88	0x3f979e73	1.184523
89	0xbf130a9e	-0.57438076
90	0xbdd0a1ad	-0.10187087
91	0xbffbc1e5	-1.9668547
92	0x3f3a8305	0.7285617
93	0xbcc6a690	-0.024249345
94	0xbfd0bf39	-1.6308357
95	0x3f3acacb	0.7296569
96	0xbea31ac3	-0.31856355
97	0x3e84a0c2	0.25903898
98	0xbea4fa6a	-0.322223
99	0x3e5e84db	0.21730368
100	0x3d95d1d9	0.07315416
101	0x3f899db9	1.0751258
102	0xbe6fedff	-0.23430632
103	0x3f630992	0.8868648
104	0xbeef734b	-0.4676765
105	0x3e5a07d5	0.2129205
106	0x3f63c56c	0.88973117
107	0x3e9322b5	0.28737417
108	0x3f41497f	0.7550277
109	0x3f0fae99	0.5612579
110	0x3f455614	0.7708447
111	0xbe7741f5	-0.24146254
112	0x3ef08c0b	0.46981844
113	0x3ee5e692	0.44902474
114	0xbe816e32	-0.25279385
115	0x3dc97233	0.09836235
116	0x3de9bce6	0.11412983
117	0x3e8b5b5a	0.27218133
118	0x3e930b68	0.2871964
119	0x3f444882	0.7667314
120	0x3df441e2	0.11926629
121	0xbdebd2b6	-0.11514799
122	0xbd93ca0a	-0.0721627
123	0xbf0cac63	-0.5495054
124	0x3f0ac6d6	0.5420965
125	0xbdd0702c	-0.10177645
126	0x3ee695c3	0.45036134
127	0x3eff8f47	0.49914
128	0x3db17928	0.08665687
129	0xbd28bbf4	-0.04119487
130	0xbf715084	-0.9426348
131	0x3ce2165f	0.027598558
132	0xbef1409e	-0.47119612
133	0x3e9f2a51	0.31086972
134	0x3d3bd4f2	0.045857377
135	0x3f5c7780	0.8611984
136	0xbd921948	-0.07133728
137	0x3f0a0a4a	0.5392195
138	0xbde3fd58	-0.11132306
139	0xbc4b9b5a	-0.012427175
140	0x3f6905a8	0.91024256
141	0x3eba0959	0.36335257
142	0x3faf1351	1.367777
143	0x3f021f9c	0.5082948
144	0x3e03c5ba	0.12868395
145	0xbb33f0d3	-0.0027456775
146	0xbe8f671b	-0.2800835
147	0x3ead27cc	0.33819425
148	0xbe96a52a	-0.29422885
149	0x3db25b85	0.08708862
150	0x3eda76fc	0.42668903
151	0x3eff589c	0.4987229
152	0xbde65dc1	-0.11248351
153	0xbdbb0926	-0.09132604
154	0x3ef10dfb	0.4708098
155	0x3f341446	0.70343435
156	0x3eb5d2be	0.35512346
157	0x3f537892	0.8260585
158	0x3e801a34	0.2501999
159	0x3f9da24b	1.2315153
160	0xc012a6c3	-2.2914283
161	0x3f2f98b4	0.6859238
162	0xbeca22d9	-0.39479712
163	0x3e5ab1ba	0.2135686
164	0xbf95927d	-1.168533
165	0xbf999428	-1.1998339
166	0xbf8482dd	-1.0352436
167	0xbfa12680	-1.2589874
168	0xbf130ffb	-0.5744626
169	0xbfd71f9c	-1.6806521
170	0x3f235d53	0.63814276
171	0x3ee3ce13	0.4449316
172	0x3e432084	0.19055372
173	0x3e856fce	0.26061863
174	0x3e8c331f	0.27382752
175	0xbfd3be0b	-1.6542372
176	0xbf8a684a	-1.0813076
177	0xbf66e478	-0.90192366
178	0x3f1f2499	0.6216522
179	0x3f5ebc96	0.8700651
180	0x3e24897f	0.16068076
181	0x3f4cca8e	0.79996574
182	0x3ec84f63	0.39123067
183	0xbd74d5ae	-0.059774093
184	0x3f26c809	0.6514898
185	0x3eb16f1d	0.34655085
186	0x3ea5e0ec	0.32398164
187	0xbe4eadd7	-0.20183502
188	0x3f40fb31	0.7538329
189	0x3f1dd805	0.61657745
190	0x3f1778fd	0.5916899
191	0xbdb855ce	-0.09000741
192	0xbdf2be6d	-0.11852727
193	0x3f9535bb	1.1657022
194	0xbdc32b5d	-0.09529755
195	0x3ec3354c	0.381266
196	0x3e920d26	0.28525656
197	0x3f0e50b4	0.55591893
198	0x3feb8a14	1.8401513
199	0xbd345be9	-0.044032965

sequential/dense_2/MatMul f4 [9, 10]
0	0x3e190e52	0.14946869
1	0x3ea12d79	0.31480005
2	0xbf158749	-0.58409554
3	0xbe966f9a	-0.2938202
4	0xbf509081	-0.81470495
5	0x3f146a46	0.5797466
6	0x3f6304f4	0.8867943
7	0x3f918621	1.1369058
8	0xbf5334c2	-0.8250238
9	0x3f036824	0.5133078
10	0xbf44a041	-0.7680703
11	0xbecad81c	-0.39618003
12	0x3ec01546	0.3751623
13	0xbf768222	-0.96292317
14	0x3f13a70f	0.57676786
15	0x3ee78d8c	0.4522518
16	0xbf4cc18d	-0.79982835
17	0x3e60d28d	0.21955319
18	0xbf1aedba	-0.6051899
19	0x3f2ab71b	0.66685647
20	0xbf9047d2	-1.1271918
21	0x3f0905c8	0.53524446
22	0x3f7767a5	0.96642524
23	0xbf4af43f	-0.7927894
24	0xbe89ed34	-0.26938784
25	0xbef9024d	-0.48634568
26	0xbf417031	-0.75561816
27	0xbf7dc012	-0.991212
28	0xbf7efdf8	-0.99606276
29	0xbee10a53	-0.4395319
30	0x3ebfe4d1	0.3747926
31	0xbf9c1f0b	-1.2196974
32	0xbfb0867f	-1.3791045
33	0x3f047b3f	0.5175056
34	0xbe7c5289	-0.2464086
35	0x3f665aca	0.89982283
36	0xbeec20f9	-0.46118906
37	0xbf1fe3ae	-0.62456787
38	0x3f01d095	0.50708896
39	0x3f2c163f	0.67221445
40	0x3f34023b	0.70315903
41	0x3f81cb53	1.0140175
42	0xbf78d63d	-0.972019
43	0xbfa4fe82	-1.289017
44	0xbf8171cc	-1.0112853
45	0xbf92d910	-1.1472492
46	0xbfed58b9	-1.8542701
47	0xc0030f26	-2.0477996
48	0xbf0933d6	-0.5359472
49	0x3f1a9d47	0.60396236
50	0xbd72cb3b	-0.059275847
51	0xbfb6dcaf	-1.4286097
52	0xbee12fa8	-0.4398167
53	0x3f041d14	0.5160687
54	0x3f593fca	0.8486296
55	0x3dccdcc9	0.10003049
56	0xbf757e59	-0.95895916
57	0xbe7690b9	-0.24078645
58	0x3f10df91	0.56591135
59	0xbfa2ca98	-1.2718077
60	0xbfc961f6	-1.573302
61	0x3f463bc8	0.7743497
62	0xbf7a60f2	-0.97804177
63	0xbf9cc576	-1.224776
64	0xbfec50a5	-1.8462111
65	0xbf802691	-1.001177
66	0xbe1072d9	-0.14106311
67	0xbf8545f8	-1.0411978
68	0x3f88feee	1.0702798
69	0x3eeaaa4a	0.45833045
70	0xbdf412c7	-0.11917644
71	0xbfbeae9f	-1.489704
72	0xbd900eb4	-0.070340544
73	0x3f2e5727	0.68101734
74	0x3f79852a	0.9746882
75	0xbead11b4	-0.3380257
76	0xbdcb1f12	-0.099180356
77	0x3f91a0b6	1.137717
78	0xbfaea2e5	-1.3643461
79	0x3d99c13f	0.07507562
80	0x3f4b94fd	0.79524213
81	0xbf0ebc75	-0.5575631
82	0x3f0717a6	0.5277046
83	0xbeb05cb4	-0.34445727
84	0xbf216637	-0.6304659
85	0xbf46f597	-0.7771849
86	0xbf685be7	-0.9076523
87	0x3bfa4a8b	0.0076382807
88	0x3f9b0d07	1.2113351
89	0xc00da3e4	-2.213128
