model/thinkall/keypoint_classifier.tflite (tflite, 8440 bytes, 6 tensors)

sequential/dense/BiasAdd/ReadVariableOp f4 [24]
0	0xbee6d97f	-0.4508781
1	0xbf6b585a	-0.9193169
2	0xbf27a339	-0.65483433
3	0x3f57fc16	0.8436903
4	0xbf0cd071	-0.55005556
5	0xbf799859	-0.9749809
6	0x3ce9a61e	0.028521594
7	0xbfba3f8b	-1.4550642
8	0xbf97af67	-1.1850404
9	0xbf27fdd3	-0.6562168
10	0xbf3df3b8	-0.7420001
11	0x3f0c7b06	0.5487522
12	0xbf34e1a7	-0.7065682
13	0xbf48ce96	-0.78440225
14	0xbf146607	-0.5796818
15	0xbf910c24	-1.133183
16	0xbf5b078e	-0.855584
17	0xbf97bbb3	-1.1854156
18	0x3f1c01d1	0.6094027
19	0xbed14926	-0.4087612
20	0xbfa1b4e5	-1.263333
21	0xbf01b06c	-0.50659823
22	0xbfa16861	-1.2609979
23	0xbe86c289	-0.26320294

sequential/dense_2/BiasAdd/ReadVariableOp f4 [10]
0	0xbf5d1f14	-0.86375546
1	0xbe63a55f	-0.22231053
2	0x3f1f726c	0.6228397
3	0x3eb899ac	0.36054742
4	0x3dca2258	0.09869832
5	0x3ee641f9	0.44972208
6	0x3f8c0c5c	1.0941272
7	0x3df1dfa2	0.11810233
8	0xbe82edcf	-0.2557206
9	0xbf680143	-0.90626925

sequential/dense_1/BiasAdd/ReadVariableOp f4 [16]
0	0xbddb27c8	-0.10700947
1	0x3e8803a9	0.26565292
2	0x3e0d79c3	0.1381598
3	0x3e12347a	0.1427783
4	0x3eb29f25	0.34887043
5	0x3e411ae8	0.1885792
6	0x3f38bb25	0.7216056
7	0x3f2d19d5	0.6761754
8	0x3e774090	0.24145722
9	0x3f04f1a9	0.51931244
10	0x3f27ea5f	0.65591997
11	0x3f85b724	1.0446515
12	0x3e899c1c	0.26876915
13	0x3f15f973	0.58583754
14	0xbecba837	-0.39776775
15	0x3e3d6a87	0.18497668

sequential/dense/MatMul f4 [24, 42]
0	0x3e3ddd7e	0.18541524
1	0x3e3fc6a8	0.18728125
2	0x3d9c0261	0.07617641
3	0x3e0e444b	0.13893239
4	0xbe02b126	-0.1276289
5	0x3e96a3d5	0.2942187
6	0xbf04d394	-0.5188534
7	0x3ec00b70	0.37508726
8	0xbec434ec	-0.38321626
9	0x3ef5a348	0.47976136
10	0x3e2cdf98	0.16882169
11	0x3e5f85ce	0.21828386
12	0x3da8cca6	0.082421586
13	0x3dc7d4f7	0.09757417
14	0x3dc05ea9	0.09393055
15	0x3de5a75b	0.11213561
16	0x3d7c1861	0.061546687
17	0xbc4cde11	-0.012504117
18	0x3e0c7bb1	0.1371906
19	0x3e16c595	0.14723809
20	0xbca212ab	-0.019784292
21	0x3de620b4	0.112367064
22	0x3d7523f7	0.059848752
23	0xbe000bc0	-0.12504482
24	0x3e7757a1	0.24154522
25	0xbed9b2bd	-0.4251918
26	0x3dc09360	0.094031096
27	0x3e2c58eb	0.16830795
28	0xbe0c8c3b	-0.13725369
29	0xbc7939e6	-0.015211558
30	0x3cd62027	0.026138378
31	0xbf00d01d	-0.50317556
32	0x3e92403d	0.28564635
33	0xbf2fe05e	-0.6870173
34	0x3b8943fd	0.004189013
35	0x3dd7e859	0.10542364
36	0xbd778606	-0.06043055
37	0xbe41ce13	-0.18926267
38	0x3cd77f3c	0.026305787
39	0xbecf0031	-0.40429834
40	0x3e1ee5f2	0.15517405
41	0xbf1c88ef	-0.61146444
42	0xbe121d98	-0.14269102
43	0xbe45fdec	-0.19335145
44	0xbcb27926	-0.021786284
45	0x3f89b72d	1.0759026
46	0x3d0ea86a	0.03482858
47	0x3e20ceb8	0.15703857
48	0x3d0f97de	0.03505694
49	0xbe9025d1	-0.28153852
50	0x3d0efeec	0.03491108
51	0xbf7508f9	-0.95716816
52	0xbecd8abd	-0.4014491
53	0x3e2dc82c	0.16970891
54	0xbe21f3b6	-0.15815625
55	0x3beb9df2	0.0071904594
56	0x3d151c39	0.03640387
57	0xbe91b9cc	-0.28462064
58	0x3da39cf4	0.07988921
59	0xbe810157	-0.25196335
60	0xbed4eb76	-0.41585892
61	0x3debf969	0.115221806
62	0xbea668ae	-0.3250174
63	0xbce86aa5	-0.028371165
64	0x3d0dce9f	0.034620877
65	0xbd8f39b5	-0.069934286
66	0x3e1c8143	0.15283684
67	0xbd95bb57	-0.07311123
68	0xbe9820fd	-0.29712668
69	0x3df9905e	0.12185739
70	0xbf1524e3	-0.5825941
71	0x3c68b3f5	0.014203061
72	0xbd863661	-0.06553341
73	0x3b9f1c0d	0.004855639
74	0x3e5c3b48	0.21506989
75	0x3cafcc6b	0.021459779
76	0x3daa5cbd	0.0831847
77	0x3d27f4d7	0.04100498
78	0xbf1e6ded	-0.61886483
79	0x3d3c4904	0.04596807
80	0xbedfe82d	-0.43731824
81	0x3d8ef04e	0.06979428
82	0xbe260d97	-0.16216122
83	0x3d888862	0.06666638
84	0x3dc7e034	0.0975956
85	0x3d7e8740	0.062140703
86	0xbf576a3d	-0.8414648
87	0xbf7429a0	-0.95376015
88	0xbf1019ba	-0.56289256
89	0xbec0df0f	-0.3767018
90	0xbefff2ff	-0.4999008
91	0xbec71785	-0.3888513
92	0xbef5bcf1	-0.47995713
93	0xbee106f7	-0.43950626
94	0xbeb7e73d	-0.35918608
95	0xbe4bbc9d	-0.19896169
96	0xbc97a29d	-0.018510157
97	0xbe3a6b89	-0.18205084
98	0x3f03e598	0.5152221
99	0xbd80df16	-0.0629255
100	0x3f365bce	0.7123383
101	0xbe8018ec	-0.25019014
102	0xbdffe2e7	-0.1249445
103	0xbe02bdaa	-0.12767664
104	0x3d34f5f5	0.044179875
105	0xbdca02eb	-0.09863838
106	0xbc467b3e	-0.012114344
107	0x3d193caa	0.03741137
108	0xbc2ad15a	-0.01042589
109	0xbc452391	-0.0120324055
110	0x3e843a95	0.25825945
111	0xbdf84af1	-0.12123669
112	0x3dfdc7af	0.12391602
113	0xbd235b41	-0.03988195
114	0x3c2855e4	0.010274384
115	0x3bb6eb75	0.005582268
116	0xbca0ceea	-0.019629914
117	0xbe1e2095	-0.15442117
118	0x3f01e11e	0.50734127
119	0xbdc3b9d1	-0.09556926
120	0x3eec1f88	0.46117806
121	0xbdb144ca	-0.086556986
122	0x3e9df5de	0.30851644
123	0xbd98f677	-0.074688844
124	0x3d61a5f9	0.055089924
125	0xbe61f046	-0.22064313
126	0xbe4acea7	-0.19805394
127	0xbe890572	-0.26761967
128	0xbd40216e	-0.04690688
129	0x3fcf98a0	1.6218452
130	0xbd296310	-0.04135424
131	0x3f4b246d	0.79352456
132	0x3d3340bd	0.04376291
133	0x3f15b9f2	0.58486855
134	0x3d88528c	0.066563696
135	0x3efcba61	0.49360946
136	0xbe699a44	-0.22812754
137	0x3e5fa466	0.21840057
138	0xbde7f616	-0.11326234
139	0x3df0a8ad	0.11750922
140	0x3c5fd18f	0.0136608025
141	0x3d98e90c	0.07466325
142	0x3d8f60e1	0.070009
143	0xbfbcf15f	-1.4761161
144	0xbd32bddb	-0.04363809
145	0x3e437fa7	0.19091664
146	0x3bafd56c	0.005366018
147	0x3dfcfe1c	0.12353155
148	0x3d9a3c9d	0.07531092
149	0x3d88af3c	0.06674048
150	0x3d96e417	0.073677234
151	0x3dad6edd	0.08468411
152	0x3c6baa8a	0.014383921
153	0x3e2bdf1c	0.16784328
154	0x3db21c1a	0.08696766
155	0x3e273f47	0.16332732
156	0x3c476a56	0.012171349
157	0x3df13bb8	0.117789686
158	0x3ddf693e	0.10908745
159	0x3db25261	0.08707119
160	0x3d82e2a9	0.06390888
161	0x3e505d03	0.20347981
162	0x3da7f639	0.0820126
163	0x3e5209b6	0.20511517
164	0xbc69a8a1	-0.014261396
165	0x3e5afd88	0.21385777
166	0xbd9ae174	-0.07562533
167	0x3e0d26d9	0.1378435
168	0xbd1e4de8	-0.038648516
169	0x3e1f24a6	0.15541324
170	0xbc009876	-0.0078488495
171	0xbd64772a	-0.055777706
172	0xbe21979b	-0.15780489
173	0xbea1768d	-0.3153576
174	0xbf12c4d4	-0.57331586
175	0xbed3fdbc	-0.4140452
176	0xbf8385fc	-1.0275264
177	0xbed1e55e	-0.40995306
178	0xbdb2bc14	-0.08727279
179	0x3e676b43	0.22599511
180	0x3d0404f5	0.03223129
181	0x3df61dda	0.120174125
182	0x3de047ad	0.10951171
183	0x3d6bcacb	0.057566445
184	0x3e16516c	0.14679497
185	0x3d3c29f2	0.04593844
186	0xbe78ee81	-0.24309732
187	0x3e804c85	0.2505838
188	0xbcaec0a3	-0.02133209
189	0x3d9376b6	0.07200377
190	0x3e991a0e	0.2990269
191	0xbd83d4fc	-0.06437108
192	0x3f208ee3	0.6271803
193	0xbb209be8	-0.002450699
194	0xbeb0a043	-0.3449727
195	0x3e882f76	0.2659871
196	0xbcb8e998	-0.022572324
197	0x3d6cb459	0.05778918
198	0x3f108894	0.564584
199	0xbc28f684	-0.01031268
200	0x3f67afd2	0.90502656
201	0xbe365596	-0.17806086
202	0xbec73c50	-0.38913202
203	0x3ebc4968	0.36774755
204	0xbd0990d8	-0.0335854
205	0x3e1ce863	0.15323023
206	0x3ec3545d	0.38150302
207	0x3e8bd790	0.273129
208	0x3f2b3dbf	0.6689109
209	0x3ec1d9a8	0.3786137
210	0x3d7a4520	0.06110108
211	0x3e6bd168	0.23029101
212	0xbe14a72b	-0.14516895
213	0xbe66cb1a	-0.22538415
214	0xbd9e1e49	-0.0772062
215	0xbcaf1a88	-0.021374956
216	0xbd9ecf5f	-0.07754397
217	0xbc31d4e6	-0.010853982
218	0xbfb6d0f4	-1.4282517
219	0x3c5f913f	0.013645469
220	0x3d08d095	0.033402044
221	0x3dc18a36	0.0945019
222	0x3dcf52cb	0.101232134
223	0x3c5c774c	0.013456177
224	0x3e805df2	0.25071675
225	0xbd8b9172	-0.06814851
226	0x3eb3bb02	0.35103613
227	0xbdd38f0c	-0.103300184
228	0x3d9f55ae	0.07780014
229	0x3dd3b954	0.10338083
230	0x3d91447a	0.07093139
231	0x3ca23c4f	0.019804148
232	0x3e44c38a	0.19215217
233	0xbd2396dd	-0.039938796
234	0x3e54dd67	0.20787583
235	0xbad8862d	-0.001651948
236	0x3d5dd064	0.054153815
237	0x3e055678	0.13021266
238	0x3ccd8930	0.02508983
239	0xbd46f177	-0.048570123
240	0x3e2df80c	0.16989154
241	0xbe0449cc	-0.12918776
242	0x3e71140c	0.23542804
243	0xbc8cd8ec	-0.01719328
244	0x3c92593e	0.01786482
245	0x3de5fb87	0.11229616
246	0x3d2188f1	0.039437238
247	0xbc4d4568	-0.012528755
248	0x3e156b02	0.14591601
249	0xbdbfcf34	-0.09365693
250	0x3e68e820	0.22744799
251	0xbd14f76f	-0.036368784
252	0xbe7c3d89	-0.24632849
253	0xbe992a5d	-0.29915133
254	0x3f1c23c8	0.609921
255	0xbec7cce6	-0.39023513

sequential/dense_1/MatMul f4 [16, 24]
0	0x3e837ee6	0.25682753
1	0x3f50890b	0.8145911
2	0xbdb0a586	-0.08625321
3	0xbdb02fa4	-0.08602837
4	0xbf488756	-0.78331506
5	0xbe3f6d19	-0.18693961
6	0x3df2dba7	0.118583016
7	0xc01b0101	-2.4219363
8	0xbe4c878b	-0.1997358
9	0xbfc91dea	-1.5712254
10	0x3ef5334a	0.47890693
11	0x3e02540e	0.12727377
12	0x3f1c66c4	0.6109431
13	0xbe5cce4d	-0.21563073
14	0x3f314998	0.6925292
15	0x3eb58297	0.35451195
16	0xbf912e19	-1.1342193
17	0x3eb05096	0.34436482
18	0x3d5a5009	0.053298984
19	0xbf79a19f	-0.9751224
20	0xbfa98eb9	-1.324668
21	0x3f4df124	0.80446076
22	0x3eaa28e8	0.33234334
23	0x3c8f6d0e	0.017508056
24	0x3f0957d5	0.53649646
25	0x3d5c2090	0.05374199
26	0xbd50f900	-0.051018715
27	0x3e9f7fef	0.31152293
28	0xbe46d0ba	-0.1941556
29	0x3e55e7f2	0.20889261
30	0x3e3ea1bd	0.18616386
31	0x3f2a9d09	0.66645867
32	0x3ea38396	0.3193633
33	0x3edda23e	0.43287843
34	0xbf515610	-0.81771946
35	0xbf051535	-0.51985484
36	0x3ef0be22	0.4702006
37	0x3eef4d10	0.46738482
38	0xbcffb8a6	-0.031215977
39	0xbeeb48cf	-0.45953986
40	0x3e65e2d3	0.22449808
41	0xbf73523f	-0.9504737
42	0x3e268199	0.16260375
43	0x3e50b11e	0.20380065
44	0x3f39f383	0.72637194
45	0xbe7d89ca	-0.24759594
46	0x3e91916b	0.28431258
47	0xbf9a39c4	-1.2048879
48	0x3f092b1c	0.53581405
49	0xbe0e5a42	-0.13901618
50	0x3dc9fc12	0.09862532
51	0x3ca0047f	0.019533394
52	0x3b475054	0.003041287
53	0x3e8927b0	0.26788092
54	0x3ddef882	0.10887243
55	0x3d3af67d	0.045645226
56	0x3f5edef1	0.8705893
57	0x3e6852de	0.22687861
58	0x3f1a9a17	0.6039137
59	0x3e5dd8f5	0.21664794
60	0x3f3c4318	0.73539877
61	0x3f613fe2	0.879881
62	0x3f30e443	0.690983
63	0x3eb4b230	0.35292196
64	0xbe05bcb5	-0.13060267
65	0x3f610d7c	0.879112
66	0x3f21faa0	0.6327305
67	0x3fb29a00	1.3953247
68	0xbdf3a2e2	-0.11896302
69	0xbeefc471	-0.4682956
70	0x3f1300bf	0.57423013
71	0x3f1777e0	0.5916729
72	0xbec5caa5	-0.38631168
73	0x3f1e11d7	0.6174597
74	0xbf6cf133	-0.9255554
75	0xbe002a8d	-0.12516232
76	0xbfaea2c8	-1.3643427
77	0xbe5de750	-0.2167027
78	0x3f191150	0.5979204
79	0xbe6e07b7	-0.2324513
80	0xbda6e355	-0.08148829
81	0x3e6f344d	0.23359795
82	0xbf84e751	-1.0383092
83	0x3e4ace04	0.19805151
84	0x3d7d1b8f	0.06179386
85	0x3e9714e4	0.29508126
86	0x3de1550a	0.11002548
87	0x3e3ede1b	0.18639414
88	0xbfcb810a	-1.5898755
89	0xbf561daa	-0.83639014
90	0x3e0d909a	0.13824692
91	0x3e6fce20	0.23418474
92	0xbe9f47db	-0.3110951
93	0x3e88d101	0.26721957
94	0x3ec7c6e9	0.39018944
95	0xbe84279a	-0.25811464
96	0xbd182a66	-0.03714981
97	0x3f4e6365	0.80620414
98	0x3dc664d8	0.09687203
99	0x3f6d306f	0.9265203
100	0xbea7b5b8	-0.32755828
101	0xbe61968b	-0.22030084
102	0x3f083f79	0.5322185
103	0x3f1f6fc7	0.62279934
104	0x3e31e266	0.1737152
105	0x3f4ebdf6	0.8075861
106	0x3e737530	0.23775172
107	0x3f087d4e	0.533162
108	0xbe244566	-0.16042098
109	0x3f5b2a61	0.8561154
110	0xbe1e86af	-0.15481065
111	0x3def68b5	0.11689893
112	0x3ea50c75	0.32236066
113	0x3e438440	0.19093418
114	0x3f011b8f	0.50432676
115	0x3f9b0f70	1.2114086
116	0x3f1c0c3c	0.6095617
117	0x3fb70d15	1.4300867
118	0x3d66b9a1	0.056329373
119	0x3f0cdf4f	0.5502824
120	0xbd9397c8	-0.07206684
121	0xbe01454e	-0.12624094
122	0x3e19d189	0.15021338
123	0x3db3ec60	0.08785319
124	0x3e7a39b2	0.24436072
125	0x3e94f1f6	0.29090852
126	0x3f7ccbb1	0.9874831
127	0x3f8edc79	1.1161033
128	0x3ef293e1	0.47378448
129	0x3de94628	0.11390334
130	0xbecad567	-0.39615938
131	0x3efe6673	0.49687538
132	0x3c81c343	0.015840178
133	0x3f1d5d62	0.61470616
134	0x3c6b6799	0.014367961
135	0x3f3f720e	0.7478341
136	0x3e551300	0.20808029
137	0x3e8f3c28	0.27975583
138	0x3e921683	0.285328
139	0xbdc41657	-0.095745735
140	0x3e20d146	0.15704831
141	0xbdaddf3f	-0.084898464
142	0x3f8fcc0e	1.1234148
143	0x3d2ea78c	0.042640254
144	0x3eb073b4	0.34463274
145	0xbe3cf567	-0.18452989
146	0x3dbfaddf	0.09359335
147	0x3e8ae561	0.27128127
148	0x3e47f3ed	0.19526644
149	0x3f9428ce	1.1574953
150	0xbd2d0640	-0.04224229
151	0xbe1bdfb0	-0.15222049
152	0x3e277b4c	0.16355628
153	0x3c5ba86a	0.013406852
154	0x3dc302be	0.095220074
155	0x3d380b77	0.04493281
156	0x3e516638	0.2044915
157	0x3e619bdc	0.22032112
158	0xbfae1f56	-1.3603313
159	0xbde9adae	-0.1141008
160	0xbd2d4d70	-0.04231018
161	0x3dc30a21	0.09523416
162	0x3eaaa6f8	0.33330512
163	0x3ec5f369	0.3866227
164	0xbf3c4435	-0.73541576
165	0x3fa8bf04	1.3183293
166	0x3e2407de	0.16018626
167	0xbd752475	-0.05984922
168	0x3f0de9ff	0.55435175
169	0x3eb72919	0.35773543
170	0x3eed0948	0.46296144
171	0x3de282c8	0.11060101
172	0xbd0aabba	-0.033855177
173	0x3f3151c1	0.6926537
174	0xbe9571ae	-0.29188293
175	0x3d9041b8	0.07043785
176	0x3e8b3a9f	0.27193162
177	0xbeb8e543	-0.36112413
178	0x3f0baa84	0.5455706
179	0x3bc127e2	0.005894647
180	0x3e1f0dc2	0.15532592
181	0xbf21c584	-0.6319201
182	0xbe59ac52	-0.21257141
183	0x3f7dbfaf	0.9912061
184	0xbe29b4da	-0.16572896
185	0x3ec1ea35	0.37873998
186	0x3d46ea9b	0.04856358
187	0xbf401ebc	-0.75046897
188	0x3fc21370	1.5162182
189	0xbf2bb985	-0.67079955
190	0x3f9d78c6	1.2302482
191	0xbe079e26	-0.13243923
192	0x3e1a67d2	0.15078667
193	0x3f015470	0.50519466
194	0xbf0f8b88	-0.5607228
195	0x3fa78d9e	1.3090093
196	0x3dfb336f	0.122656696
197	0x3f988cce	1.191797
198	0x3cd82a32	0.026387308
199	0xbdc2d7c2	-0.09513809
200	0x3d7fa2f6	0.06241127
201	0xbcc3b639	-0.023890601
202	0x3cd82249	0.026383536
203	0x3e8cf441	0.275301
204	0x3e8aba3f	0.2709522
205	0x3e20faf6	0.15720734
206	0x3e24ca28	0.16092741
207	0x3ec32516	0.38114232
208	0x3ecf7765	0.40520778
209	0x3d4f736b	0.05064718
210	0x3f3764af	0.71638006
211	0x3d76fe4b	0.060301106
212	0x3ed4fe14	0.41600096
213	0x3fbcf86f	1.4763316
214	0xbe928746	-0.2861883
215	0x3fbe11a7	1.4849137
216	0xbcddf2ff	-0.027093409
217	0xbdba8836	-0.091080114
218	0x3de2f8a1	0.110825785
219	0x3e14bd20	0.1452527
220	0xbee3bd94	-0.44480574
221	0xbec87ba9	-0.39156845
222	0x3d039095	0.032120306
223	0x3e336d59	0.17522182
224	0x3fb0a3fc	1.3800044
225	0x3f103c1f	0.5634174
226	0xbdcbaca7	-0.0994504
227	0xbce191b1	-0.027535291
228	0x3f0dcb46	0.55388296
229	0x3bd56f0b	0.0065134815
230	0x3c956ada	0.018239427
231	0xbd3ad8f6	-0.045617066
232	0xbe22d002	-0.15899661
233	0xbd9d75bc	-0.07688472
234	0x3e8d8a77	0.27644703
235	0xbdc23966	-0.09483604
236	0x3e2e992e	0.17050621
237	0x3f59a579	0.85018116
238	0x3f833109	1.0249339
239	0x3f2c920e	0.6741036
240	0x3de2c3b0	0.11072481
241	0xbe1b8bc8	-0.15190041
242	0x3c8b2226	0.016984057
243	0x3ec10e70	0.37706327
244	0xbf8e4a01	-1.1116334
245	0xbc0c8e2e	-0.00857882
246	0xbd8a45c8	-0.06751591
247	0xbdb7cf32	-0.08975066
248	0xbd0e9e54	-0.034818962
249	0xbe123829	-0.14279236
250	0xbb82096f	-0.0039684097
251	0x3f118b11	0.56852823
252	0xbce74643	-0.028231746
253	0xbeb74622	-0.35795695
254	0xbf2da140	-0.6782417
255	0xbf1a609b	-0.6030366

sequential/dense_2/MatMul f4 [10, 16]
0	0xbebaac20	-0.36459446
1	0xbe7e1caf	-0.2481563
2	0x3d7016b8	0.058615416
3	0x3f145b65	0.57951957
4	0x3c81b998	0.015835568
5	0xbe84fdd0	-0.25974894
6	0x3f0990ab	0.5373637
7	0xbf1eba23	-0.6200277
8	0x3eca9e8d	0.3957409
9	0xbf1d4737	-0.6143679
10	0x3e699775	0.22811683
11	0xbeefcf58	-0.46837878
12	0x3f2cb9a4	0.67470765
13	0x3c9b1572	0.018931124
14	0x3f10a38d	0.5649956
15	0x3e4b988c	0.19882411
16	0xbe1e5466	-0.15461883
17	0x3d900abb	0.07033297
18	0x3f01a1ba	0.506374
19	0xbf2111fc	-0.62918067
20	0x3f02bdb2	0.510707
21	0x3d877301	0.06613732
22	0xbf4ed84e	-0.80798805
23	0x3ede9ee1	0.4348059
24	0x3e37a722	0.1793485
25	0x3e56df9b	0.20983736
26	0x3c83e315	0.016099492
27	0xbe0dbf5a	-0.13842526
28	0xbe5080cf	-0.20361637
29	0xbe49d89d	-0.19711538
30	0xbeedc849	-0.46441868
31	0x3e4123ef	0.18861364
32	0xbe9e716d	-0.30945912
33	0xbf9938a1	-1.1970407
34	0x3d1eb3c6	0.038745664
35	0xbf08996c	-0.53359103
36	0x3f1ddf3a	0.6166874
37	0xbf11f227	-0.5701012
38	0x3f315aa3	0.69278926
39	0xbe3242d9	-0.17408313
40	0xbeda77c7	-0.42669508
41	0x3f0da018	0.5532241
42	0x3e96e14e	0.2946877
43	0x3fa3dd4b	1.2801908
44	0xbe4b2421	-0.19838001
45	0xbf16cd55	-0.5890706
46	0xbf221fc5	-0.63329726
47	0x3e963e7f	0.29344556
48	0xbeb9e23b	-0.36305413
49	0xbe4b2fb8	-0.19842422
50	0x3f291e63	0.6606199
51	0xbe35cf06	-0.17754754
52	0xbd7ea3f6	-0.062168084
53	0xbec44d1f	-0.3834009
54	0x3f614119	0.87989956
55	0xbed2ce04	-0.41172802
56	0xc00fc3f1	-2.2463343
57	0xbe086062	-0.13318017
58	0xbed62461	-0.4182463
59	0xbe422e12	-0.18962887
60	0x3f067e39	0.5253635
61	0xbf1054cf	-0.5637941
62	0x3f1893db	0.5960061
63	0xbfa72d3b	-1.3060678
64	0xbf1bfb98	-0.60930777
65	0x3f48df1e	0.7846545
66	0x3ebebebf	0.37254903
67	0x3f1c4a94	0.610513
68	0xbe0fdf7a	-0.14050093
69	0x3d9421c4	0.07233003
70	0xbf5b219f	-0.85598177
71	0x3b638a94	0.003472005
72	0xbf219675	-0.63120204
73	0x3f0814c4	0.53156686
74	0xbf8f13da	-1.1177933
75	0x3e3bf6fe	0.18355939
76	0x3db64fa9	0.08901913
77	0x3d5392ce	0.051653676
78	0xbebde10e	-0.37085766
79	0xbfd95b12	-1.6980917
80	0xbf168b5f	-0.58806413
81	0x3d2c82be	0.042116873
82	0x3ecb6367	0.39724275
83	0xbda9ec8f	-0.08297073
84	0xbffb2919	-1.9621917
85	0x3b6a6a92	0.0035769087
86	0x3e7ba2de	0.24573848
87	0x3f8d5232	1.1040709
88	0x3e707c8c	0.23485011
89	0xbd3d3ea6	-0.046202324
90	0xbfc9e81e	-1.5773962
91	0xbeb717e5	-0.35760418
92	0xbf4d07bb	-0.8008992
93	0xbeb234b5	-0.34805837
94	0x3e99e582	0.30057913
95	0xbec414ec	-0.38297212
96	0x3f382806	0.7193607
97	0xbf3608ac	-0.7110698
98	0xbf964b5d	-1.1741749
99	0xbf017368	-0.5056672
100	0xbd576c22	-0.052593358
101	0x3f30da56	0.69083154
102	0xbeaa3a92	-0.3324781
103	0x3ea35df5	0.3190762
104	0xbf3fd66d	-0.7493656
105	0xbfc94932	-1.5725462
106	0x3e324768	0.17410052
107	0x3e629e84	0.22130781
108	0xbf468176	-0.7754129
109	0xbd2dfc71	-0.042477075
110	0xbfb21a6d	-1.3914315
111	0x3f09bdfc	0.5380552
112	0x3eaa4a18	0.33259654
113	0x3f430d29	0.76191956
114	0xbe59c03f	-0.21264742
115	0x3e0427f3	0.12905864
116	0xbe4a7f6e	-0.19775173
117	0xbfd66845	-1.675057
118	0xbefdd15e	-0.49573797
119	0x3ef3b900	0.4760208
120	0x3f560789	0.8360525
121	0x3da31df8	0.079647005
122	0x3eb44454	0.3520838
123	0x3bf2d113	0.0074101775
124	0x3f50cc58	0.81561804
125	0xbff536b3	-1.9157318
126	0xbf8f9e51	-1.1220189
127	0xbf652ebb	-0.8952443
128	0xbf8dba63	-1.1072506
129	0xbfae82a3	-1.3633617
130	0xbeb135a8	-0.3461125
131	0x3fc2999a	1.5203125
132	0x3dc9db9a	0.09856339
133	0x3d306b36	0.043070994
134	0x3f2b9322	0.6702138
135	0x3e67dd2f	0.22642969
136	0x3f01101b	0.504152
137	0xbf5bebe4	-0.85906816
138	0xbe9f7343	-0.31142625
139	0xbf9ac859	-1.2092391
140	0xbfaadc1a	-1.334842
141	0x3f1b4389	0.60649925
142	0xbe0c3e2a	-0.13695589
143	0x3d2ea886	0.042641185
144	0x3fa5a35c	1.2940478
145	0x3e43c83b	0.1911935
146	0xbe81573a	-0.2526186
147	0xbf818d70	-1.0121288
148	0x3e32fd86	0.17479524
149	0x3efbc851	0.49176267
150	0xbd296b3b	-0.04136203
151	0x3dce9d38	0.10088581
152	0xbea885f5	-0.329147
153	0x3f0c9067	0.5490784
154	0xbefdefcd	-0.49597016
155	0xbf4ec44b	-0.8076827
156	0xbf138c74	-0.5763619
157	0xbe93fc0a	-0.28903228
158	0xbdcafd10	-0.09911549
159	0xbdccabdb	-0.09993716
