model/DiaboloKiat/keypoint_classifier.tflite (tflite, 7632 bytes, 8 tensors)

sequential/dense/BiasAdd/ReadVariableOp f4 [32]
00000000: 32e9 6b3d a6f9 c1bb aa6b 4f3e 8ba4 ad3d
00000010: 7411 babb 34a5 d83d ccce 3e3d 29c9 30bd
00000020: 1cde c33d 24c1 c43d 520b ad3d 2687 493d
00000030: a445 503d 6df8 203d 0913 abbc 9448 083e
00000040: 801c 2d3d a5eb 013e 1420 223d e9e3 043e
00000050: 7f99 e33b cab6 803c ada6 6f3d 4e01 aa3d
00000060: ed2d 453e 36c8 2b3e d450 343e d7c7 a13d
00000070: 512c d0bc 6b14 3f3d ef31 9d3c 31ff dcbd
0.05759544 -0.005919653 0.20255914 0.0847865 -0.00567835 0.10578385 0.046583936 -0.04316059
0.095638484 0.09607151 0.08449425 0.049201153 0.050847664 0.039299417 -0.0208831 0.13308936
0.042263508 0.12687548 0.039581373 0.12977566 0.0069457884 0.01571216 0.058508564 0.0830103
0.192558 0.16775593 0.17608958 0.078994446 -0.025411757 0.04665033 0.01918885 -0.107908614

sequential/dense_1/BiasAdd/ReadVariableOp f4 [32]
00000000: e12f 353c 5191 1b3e 07ad 063e 6034 513c
00000010: 13a7 dabc a207 643c f1b9 7a3d 7116 d53d
00000020: 4784 9a3d d9cd b83d 0fe0 e73c 0589 113e
00000030: efaf 8b3d fc70 abbc 59c6 fabc 242e 7b3e
00000040: ef93 fb3d c9b9 043e fc87 80bc f4ec a7bb
00000050: 2e37 0b3e d8ad 983d ae2b 653b 0000 0000
00000060: 0000 0000 20e5 c43d 9172 f4bb 20fd ca3d
00000070: cea8 b83d 5162 853c 21f1 57bd 5a9f 9f3c
0.0110587785 0.15192153 0.13151942 0.012768835 -0.026690995 0.013917835 0.061212484 0.10404671
0.07544761 0.09023637 0.028305082 0.14212425 0.06820666 -0.020927899 -0.030612158 0.2452932
0.122840755 0.12961496 -0.015689842 -0.0051246826 0.13595268 0.07455033 0.0034968662 0.0
0.0 0.096140146 -0.0074599464 0.09911561 0.09016572 0.016282232 -0.052720193 0.019485164

sequential/dense_2/BiasAdd/ReadVariableOp f4 [16]
00000000: eb67 103e 4d47 783d 34a3 823c 6577 423d
00000010: 07c9 b23d 239d 963d f451 bc3b 5ef2 dd3d
00000020: b755 793d 117f 483d 24c9 253d 8bb0 9e3d
00000030: 7a57 a63b d39b 74bc d76a 89bc fb30 943d
0.14102142 0.060614873 0.015946962 0.047477145 0.08729749 0.0735419 0.0057470743 0.108372435
0.06087276 0.048949305 0.040475026 0.07748517 0.005076346 -0.0149297295 -0.016774578 0.07235905

sequential/dense_3/BiasAdd/ReadVariableOp f4 [11]
00000000: 8051 0ebe 79b0 26bd 46d7 103d b704 0fbd
00000010: 5ade 803d 3b25 9b3b 0475 aa3d b143 363d
00000020: 98f8 933c 302e 57bc 6bda b9bd
-0.13898277 -0.04069564 0.03536155 -0.034916606 0.0629241 0.004734663 0.083231 0.04449815
0.018062875 -0.013133571 -0.09074863

sequential/dense/MatMul i1 [32, 42] scale=0.010379358 zero_point=0
00000000: f710 ead1 e911 3615 462b fae3 d7ee c300
00000010: d5dd f00b f115 11e7 f8f0 201c 041d ecf3
00000020: e40d 0f04 2e1a 1f06 36ff 030c e5ea f9e5
00000030: ea00 0dfe 1719 0316 f1f9 fd05 000e f9f9
00000040: ff05 110a faf2 f207 f6f1 0913 0212 0bfb
00000050: f7eb 1b0a eaf1 2823 f60d 13ed 0fe4 1d05
00000060: 0af1 1ad8 1ee9 22fe 17d7 080f 1729 24ff
00000070: f9ed f618 ff10 23cc 1acd 2206 f42c ef08
00000080: 06e9 15ed f1e5 ebe1 1ce4 00f6 f7e4 160b
00000090: 1e11 03de 0de9 140a f206 04f6 062d fb24
000000a0: eaf4 0303 0de8 ffc8 fa04 f1f4 f515 0507
000000b0: 1012 ecf6 e918 e816 050e f708 1b03 e609
000000c0: ebfc 0a1c fd14 1205 f7f9 e704 ebf4 f716
000000d0: ef0d 13e9 de11 e0f8 fcfb f413 0f0f 0ff3
000000e0: 2bd4 04be efeb 18ea 11f5 18fe efee f512
000000f0: ef34 ef1c 0b11 dc0b 08f1 0fdc 04f8 d615
-0.093414225 0.16606973 -0.22834589 -0.48782983 -0.23872524 0.17644909 0.56048536 0.21796653
0.72655505 0.4463124 -0.062276147 -0.3010014 -0.42555368 -0.18682845 -0.63314086 0.0
-0.4463124 -0.36327752 -0.16606973 0.11417294 -0.15569037 0.21796653 0.17644909 -0.25948396
-0.083034866 -0.16606973 0.33213946 0.29062203 0.041517433 0.3010014 -0.20758717 -0.13493165
-0.29062203 0.13493165 0.15569037 0.041517433 0.4774505 0.2698633 0.32176012 0.062276147
0.56048536 -0.010379358 0.031138074 0.124552295 -0.28024268 -0.22834589 -0.07265551 -0.28024268
-0.22834589 0.0 0.13493165 -0.020758716 0.23872524 0.25948396 0.031138074 0.22834589
-0.15569037 -0.07265551 -0.031138074 0.051896792 0.0 0.14531101 -0.07265551 -0.07265551
-0.010379358 0.051896792 0.17644909 0.103793584 -0.062276147 -0.14531101 -0.14531101 0.07265551
-0.103793584 -0.15569037 0.093414225 0.19720781 0.020758716 0.18682845 0.11417294 -0.051896792
-0.093414225 -0.21796653 0.28024268 0.103793584 -0.22834589 -0.15569037 0.41517434 0.36327752
-0.103793584 0.13493165 0.19720781 -0.19720781 0.15569037 -0.29062203 0.3010014 0.051896792
0.103793584 -0.15569037 0.2698633 -0.41517434 0.31138074 -0.23872524 0.35289818 -0.020758716
0.23872524 -0.42555368 0.083034866 0.15569037 0.23872524 0.42555368 0.3736569 -0.010379358
-0.07265551 -0.19720781 -0.103793584 0.24910459 -0.010379358 0.16606973 0.36327752 -0.5397266
0.2698633 -0.52934724 0.35289818 0.062276147 -0.124552295 0.45669177 -0.17644909 0.083034866
0.062276147 -0.23872524 0.21796653 -0.19720781 -0.15569037 -0.28024268 -0.21796653 -0.32176012
0.29062203 -0.29062203 0.0 -0.103793584 -0.093414225 -0.29062203 0.22834589 0.11417294
0.31138074 0.17644909 0.031138074 -0.35289818 0.13493165 -0.23872524 0.20758717 0.103793584
-0.14531101 0.062276147 0.041517433 -0.103793584 0.062276147 0.46707112 -0.051896792 0.3736569
-0.22834589 -0.124552295 0.031138074 0.031138074 0.13493165 -0.24910459 -0.010379358 -0.58124405
-0.062276147 0.041517433 -0.15569037 -0.124552295 -0.11417294 0.21796653 0.051896792 0.07265551
0.16606973 0.18682845 -0.20758717 -0.103793584 -0.23872524 0.24910459 -0.24910459 0.22834589
0.051896792 0.14531101 -0.093414225 0.083034866 0.28024268 0.031138074 -0.2698633 0.093414225
-0.21796653 -0.041517433 0.103793584 0.29062203 -0.031138074 0.20758717 0.18682845 0.051896792
-0.093414225 -0.07265551 -0.25948396 0.041517433 -0.21796653 -0.124552295 -0.093414225 0.22834589
-0.17644909 0.13493165 0.19720781 -0.23872524 -0.35289818 0.17644909 -0.33213946 -0.083034866
-0.041517433 -0.051896792 -0.124552295 0.19720781 0.15569037 0.15569037 0.15569037 -0.13493165
0.4463124 -0.45669177 0.041517433 -0.6850376 -0.17644909 -0.21796653 0.24910459 -0.22834589
0.17644909 -0.11417294 0.24910459 -0.020758716 -0.17644909 -0.18682845 -0.11417294 0.18682845
-0.17644909 0.5397266 -0.17644909 0.29062203 0.11417294 0.17644909 -0.3736569 0.11417294
0.083034866 -0.15569037 0.15569037 -0.3736569 0.041517433 -0.083034866 -0.43593305 0.21796653

sequential/dense_1/MatMul i1 [32, 32] scale=0.009868162 zero_point=0
00000000: ee1d 30fc f1d1 0403 292a db0f 18f7 1824
00000010: 2aeb a9e3 f714 fb00 0511 f008 fb43 d6c0
00000020: 0e1e 5818 02f9 ed1c fedf e955 d3e8 05eb
00000030: 5332 da0a 1cfb 2d59 3a2f e621 f03b e4de
00000040: b411 3302 1d23 303d 2209 d631 0bfc ff0e
00000050: f3df cf28 082c 2129 3835 0735 f013 e244
00000060: b9e5 00e4 0ccf f637 0420 0022 150a f723
00000070: c0e9 2502 19f9 e6d5 eef2 1527 fa0e 3267
00000080: ea1e e807 1807 f9ed 0f10 13f0 efe5 1df7
00000090: f0fb 04f4 0cf6 ebf6 f3eb 19e1 f4e0 18ff
000000a0: b9ef 1112 f20e 2d5a ee00 d531 fdf1 edfa
000000b0: 0d30 f5fd 02be 0b07 170e fc1f 134b d739
000000c0: af13 0cf9 f121 1558 f52b 11f9 e11c fc0e
000000d0: d4eb 2722 1bc1 0324 400f 1e13 ff22 1227
000000e0: 04f0 12fa 2134 1912 27fe 00db 45fb 000c
000000f0: 1820 050b 0e16 fe9a e723 031f e2d1 f50f
-0.17762691 0.28617668 0.47367176 -0.039472647 -0.14802243 -0.4638036 0.039472647 0.029604485
0.40459463 0.4144628 -0.365122 0.14802243 0.23683588 -0.088813454 0.23683588 0.35525382
0.4144628 -0.2072314 -0.85853004 -0.28617668 -0.088813454 0.19736323 -0.049340807 0.0
0.049340807 0.16775875 -0.15789059 0.078945294 -0.049340807 0.66116685 -0.4144628 -0.63156235
0.13815427 0.29604486 0.86839825 0.23683588 0.019736324 -0.069077134 -0.18749507 0.27630854
-0.019736324 -0.32564935 -0.22696772 0.83879375 -0.44406727 -0.23683588 0.049340807 -0.2072314
0.8190574 0.49340808 -0.37499014 0.098681614 0.27630854 -0.049340807 0.44406727 0.8782664
0.57235336 0.4638036 -0.25657222 0.32564935 -0.15789059 0.58222157 -0.27630854 -0.3355175
-0.7499803 0.16775875 0.5032762 0.019736324 0.28617668 0.34538567 0.47367176 0.60195786
0.3355175 0.088813454 -0.4144628 0.48353994 0.10854978 -0.039472647 -0.009868162 0.13815427
-0.12828611 -0.32564935 -0.48353994 0.39472646 0.078945294 0.43419912 0.32564935 0.40459463
0.5526171 0.5230126 0.069077134 0.5230126 -0.15789059 0.18749507 -0.29604486 0.671035
-0.7006395 -0.26644036 0.0 -0.27630854 0.11841794 -0.48353994 -0.098681614 0.54274887
0.039472647 0.31578118 0.0 0.3355175 0.2072314 0.098681614 -0.088813454 0.34538567
-0.63156235 -0.22696772 0.365122 0.019736324 0.24670404 -0.069077134 -0.25657222 -0.42433095
-0.17762691 -0.13815427 0.2072314 0.3848583 -0.05920897 0.13815427 0.49340808 1.0164206
-0.21709956 0.29604486 -0.23683588 0.069077134 0.23683588 0.069077134 -0.069077134 -0.18749507
0.14802243 0.15789059 0.18749507 -0.15789059 -0.16775875 -0.26644036 0.28617668 -0.088813454
-0.15789059 -0.049340807 0.039472647 -0.11841794 0.11841794 -0.098681614 -0.2072314 -0.098681614
-0.12828611 -0.2072314 0.24670404 -0.305913 -0.11841794 -0.31578118 0.23683588 -0.009868162
-0.7006395 -0.16775875 0.16775875 0.17762691 -0.13815427 0.13815427 0.44406727 0.88813454
-0.17762691 0.0 -0.42433095 0.48353994 -0.029604485 -0.14802243 -0.18749507 -0.05920897
0.12828611 0.47367176 -0.10854978 -0.029604485 0.019736324 -0.6512987 0.10854978 0.069077134
0.22696772 0.13815427 -0.039472647 0.305913 0.18749507 0.7401121 -0.40459463 0.5624852
-0.7993211 0.18749507 0.11841794 -0.069077134 -0.14802243 0.32564935 0.2072314 0.86839825
-0.10854978 0.42433095 0.16775875 -0.069077134 -0.305913 0.27630854 -0.039472647 0.13815427
-0.43419912 -0.2072314 0.3848583 0.3355175 0.26644036 -0.6216942 0.029604485 0.35525382
0.63156235 0.14802243 0.29604486 0.18749507 -0.009868162 0.3355175 0.17762691 0.3848583
0.039472647 -0.15789059 0.17762691 -0.05920897 0.32564935 0.51314443 0.24670404 0.17762691
0.3848583 -0.019736324 0.0 -0.365122 0.68090314 -0.049340807 0.0 0.11841794
0.23683588 0.31578118 0.049340807 0.10854978 0.13815427 0.21709956 -0.019736324 -1.0065525
-0.24670404 0.34538567 0.029604485 0.305913 -0.29604486 -0.4638036 -0.10854978 0.14802243

sequential/dense_2/MatMul f4 [16, 32]
00000000: 6266 a7be 3298 dfbd 1982 813e 42f6 2bbe
00000010: efb9 8d3e 67c6 25bf 131b 62bc 8b21 1c3f
00000020: e88d 8ebe 6120 853e 1c3d 99be 793e 403f
00000030: 612d 373f 4337 4dbe 4acd 29be 64b8 f13e
00000040: 7fd0 0d3f a4b5 8f3e f1a8 c4be 2c98 6abe
00000050: bfff 363e 5ba6 05bf 53af 1fbf 58fd 4bbd
00000060: 2bcd 8c3e b593 eb3e f384 8c3e 53da 353f
00000070: 6288 833e 71bb a4bd 45d8 febe 42f6 1f3f
00000080: ce02 92be 2b47 863f 5845 15be ec97 0bbe
00000090: ada8 923e b8fb d03d 3572 2b3e 92f7 cfbd
000000a0: c66f ccbe 76d1 a93e c9d9 283f dbf0 9b3e
000000b0: 6bd9 f63d 5768 433e 4d06 13be 3533 7d3f
000000c0: 4f26 d13e fdbc 433f c48d 613e f88d 8e3d
000000d0: 4b6c b8be 50a7 553f 6d5d d13e 0a60 3b3e
000000e0: fa29 19be 58ed 0cbf 5bb7 6ebe fd39 72be
000000f0: f075 b9be 50d8 7abe 6fff 00bf 5b50 b1bd
00000100: d5bb 7b3f df3f 3a3f 8a28 673e b080 833e
00000110: ecc6 54bd 6487 563f 37c2 d5bd 965b 4c3e
00000120: a04c 83be 32a2 89be a403 dc3e 5b53 74bd
00000130: e45b 9abe 2aee 2c3e bd41 313e ae6c 66be
00000140: ca58 d2be ded6 c5be cdaf c0bd b69c 353e
00000150: fcb1 473e e53f ae3d 112e 103f 6898 123e
00000160: 9ae7 633e 341c a6bd db87 613e a276 93bc
00000170: 3b1e df3d 3f19 8c3e 80ac 8d3f 3f48 00be
00000180: 7874 b03e 3c21 d7bd 268d fe3e 2756 93bd
00000190: 45b5 113e bb91 b53c 3567 ab3e 19fc 9b3e
000001a0: 8567 1cbe 3aea e1bd 94b8 d3be a298 71be
000001b0: 24b3 213e 51d6 08be 6583 b53e c488 9b3e
000001c0: a245 cdbc 534e 1bbf 12ae 94be 46c5 753e
000001d0: aedd ab3e 5913 78bf 6620 dd3e aeee 40be
000001e0: 1867 26be 0441 113f 4b82 713e 8c0f fbbd
000001f0: ab76 a63e deaa 9c3e 653e 633f 11c8 30be
00000200: 1682 b33d a416 ccbe cf74 6b3e 6998 973e
00000210: 5052 ea3d 9cc0 63be 0b80 81be 00b4 ca3d
00000220: c988 97bd d7bd cdbe b56a 3a3e f044 48be
00000230: 8c89 20be 0db3 f7bc 4be8 173e 3804 b2be
00000240: c889 933e cfc3 9b3e 0732 bbbe 5043 a2bc
00000250: e6f8 2d3f 145d 19be 13ed db3d aaa9 023e
00000260: fafb 4a3e 1ce6 443f 48a8 07be 8a54 1d3e
00000270: bea0 aebd 09a2 473f bd61 d03e 8c6c 06be
00000280: c347 2e3e b7ce 8c3e b946 4a3e a668 73bc
00000290: 94ec 633e f5e5 f93e f5e8 7c3d a6bd e73d
000002a0: 6df3 81be e63e 643f 26dc 153f c640 6d3f
000002b0: 0f26 c33e c781 0abc 6dba c73d 7a5e d73e
000002c0: 023b 453b 9f2f eabe b2b1 bf3e 4608 d03d
000002d0: 21e2 aebe e29d abbe ac8b 25be ae96 07be
000002e0: d3d6 893e aa7c 14bd befa 283e c61d 2cbc
000002f0: 1812 fa3e a290 353f 0136 b3bd 7bb0 073e
00000300: 59fb d73e 4051 153f ffb1 243f 4dfd fb3d
00000310: c4a2 8d3e 32ba 6c3f ad43 ee3e 0b1c 89be
00000320: 8321 d5be 4b00 12bf 0a7e e43e 3e12 29bf
00000330: 8d3e f33e c682 d3bd 46b7 7dbe 7f8a ef3e
00000340: f9e2 12bf f010 23bf 454d 063f 45e4 ae3e
00000350: a29c 64be b39f b8be 5645 273f 7053 82bc
00000360: 9c79 09be 5266 a63e e7de 51be 93d8 5e3e
00000370: f10d af3e e90d 90be 7607 9b3f 587f 2cbf
00000380: 6cb8 fd3d 9396 56be 7ad4 883d 18c5 a53e
00000390: 245f 2cbe 89de dcbe f4fe d8bd 70fd 32be
000003a0: 388e f13e 2320 45bf d62f c4be 3aca d3be
000003b0: e663 51bc ebf0 2d3e 5986 2a3e d911 3c3e
000003c0: 2dd1 2c3e fa3d 133f 3089 d73c c511 5ebe
000003d0: 0d02 1f3f 7f6c 093d cead 7e3e b094 bebd
000003e0: 9746 833e 9afb fa3e 6e85 63be 521c 33bd
000003f0: 2e9e 963e 4c22 373e a9ac fabe ac7f 96be
-0.326953 -0.10917701 0.2529457 -0.16793159 0.2768092 -0.6475586 -0.0138004 0.6098868
-0.2784264 0.26001266 -0.29929435 0.75095326 0.7155362 -0.20040612 -0.16582218 0.4721099
0.55396265 0.28068268 -0.38410142 -0.22909611 0.17870997 -0.52206963 -0.623769 -0.049802154
0.2750028 0.4601113 0.27445182 0.7103626 0.2568999 -0.08043564 -0.49774376 0.62485135
-0.28517765 1.0490469 -0.14577234 -0.13632172 0.28644314 0.102042615 0.16742785 -0.10154642
-0.39929026 0.3316762 0.65957314 0.30457196 0.12053188 0.19082771 -0.14357872 0.9890626
0.4084954 0.7646025 0.22026736 0.06960672 -0.3602012 0.83458424 0.4089159 0.18298355
-0.14957419 -0.5504966 -0.23312132 -0.23654933 -0.36222792 -0.24496579 -0.5038976 -0.08657905
0.98333484 0.7275371 0.22574058 0.25684118 -0.05194752 0.8380034 -0.10437434 0.19956812
-0.25644398 -0.26881558 0.42971528 -0.059649806 -0.30148232 0.16887727 0.17310233 -0.22502396
-0.41083366 -0.38640493 -0.09408531 0.17735562 0.1950149 0.08508281 0.5632029 0.14315951
0.22256318 -0.08110848 0.22024481 -0.018000904 0.10894438 0.2736301 1.1068268 -0.1252756
0.3446386 -0.10504386 0.49717063 -0.07194167 0.14229305 0.022164216 0.33477178 0.30465773
-0.15273865 -0.11031003 -0.4135176 -0.23593381 0.15790993 -0.13363005 0.3545181 0.3037778
-0.025057618 -0.6066639 -0.29039055 0.24001035 0.33567566 -0.9690452 0.4318878 -0.18841049
-0.16250265 0.5673983 0.23584859 -0.12258825 0.3251241 0.3059911 0.8876708 -0.1726382
0.08765046 -0.39861023 0.22993778 0.29608467 0.11441481 -0.22241443 -0.25293002 0.098976135
-0.073991366 -0.401839 0.18204768 -0.19557548 -0.1567747 -0.030236745 0.14834706 -0.34768844
0.28816056 0.30422828 -0.36561605 -0.019807488 0.67957914 -0.14976913 0.10738578 0.12760034
0.19822684 0.7691362 -0.13247788 0.1536428 -0.08526753 0.7798162 0.40699568 -0.13127345
0.17019562 0.2750146 0.19753541 -0.014856493 0.22258216 0.48808256 0.061745603 0.113154694
-0.25381032 0.89158475 0.58539045 0.9267696 0.38114974 -0.008453793 0.09752355 0.42064267
0.0030094986 -0.45739457 0.37440258 0.10157828 -0.34156898 -0.33518893 -0.16166562 -0.13241073
0.2692171 -0.0362517 0.165019 -0.010505145 0.4884193 0.7092382 -0.08750535 0.13250916
0.4218395 0.583271 0.643341 0.12304173 0.27663243 0.9247161 0.46536008 -0.26779208
-0.4162713 -0.570317 0.4462741 -0.6604346 0.4750866 -0.103276774 -0.24776945 0.46785352
-0.5737758 -0.6369772 0.52461654 0.3415853 -0.22325376 -0.3605934 0.65340173 -0.015908927
-0.13425297 0.3249994 -0.20495187 0.21762304 0.34190324 -0.28135613 1.2111652 -0.6738181
0.12388691 -0.20955877 0.06681152 0.32376933 -0.16833168 -0.4313853 -0.105955034 -0.17479491
0.47178817 -0.7700216 -0.38317746 -0.41365224 -0.012780165 0.16986434 0.16652812 0.18366183
0.16876669 0.57516444 0.026310533 -0.21686466 0.62112504 0.033550736 0.24870989 -0.09305704
0.25639793 0.49020082 -0.22218868 -0.04372818 0.29417557 0.17884177 -0.48959854 -0.2939428

sequential/dense_3/MatMul f4 [11, 16]
00000000: 159c 6cbf 275d 273f c8c9 123f bc82 7bbe
00000010: 45c2 16be eebf 953e 516d 173f 0c06 88be
00000020: 925a c7be 0288 b43e 3773 c63e 2b0a dfbe
00000030: 0271 913d bcde 323e 5050 e33e 2b7b 6ebd
00000040: 59f1 273e 64e0 4a3f 804c cb3d d1fe dd3e
00000050: a526 78bf f23e d4bd 887c 623f 24e9 18be
00000060: 01ae ddbe 14db a1bf 5b7a 9abe cd47 62bd
00000070: a414 8fbe 7dba 96be fe7b e23e 2190 49bf
00000080: 0ca8 073e c667 fb3d de57 22be 60ad 3dbe
00000090: dc4f ae3d 7836 c83e ca62 d03e 8b45 98be
000000a0: 46d7 ea3e 4eb1 9abf cace 5dbf d32e 4c3e
000000b0: cd1c 39bf 9f5c b73e 7c75 463d 6fb5 0e3f
000000c0: 917e c7be 19fa 43bf a7da 1c3f fdf4 7e3e
000000d0: b3e3 30bd de14 d33e dd35 243f 957b b2bd
000000e0: 4c7f 933e 9df8 b0be 3d17 ba3e 9b83 55bd
000000f0: 009f 6f3d df28 92be 9a09 abbe 2097 92bf
00000100: b8ae 1b3f d156 18bf daec bfbf 876d b73d
00000110: b48b d93e 60ae 693e 652b a2bf 0edc 003f
00000120: 7cf0 8ebd 09b7 483d f10f 103c 49ff 68be
00000130: fea9 9c3e c970 d03e 1514 0cbe 33eb e03a
00000140: afea 27be 3638 88bf b49f d0bd 16bb 263c
00000150: 70ca 093d 7e75 54be b0c3 653e 6016 3bbe
00000160: 6a44 b73e ddd3 013f fabe 8ebf 44a3 8e3e
00000170: ff89 273f c6ba b3bd 3621 083e 4e46 6bbe
00000180: 7d7f 043f 85d3 84bf 0c06 493e 9a49 083f
00000190: 6cfa 323f 4afc 4cbd d5e2 61bd 6434 493f
000001a0: 577d dabe 08ea 1fbf 5fd9 81bf a2a8 9bbf
000001b0: c50b b93e 5462 113e 63bf 8d3e 7790 033d
000001c0: 53fc 1f3f 09e9 b23e 326b ffbe e4de f8be
000001d0: 66de 36bf 0f6c d93e c373 86bf 4327 05bf
000001e0: 4bd8 4f3d 4cb8 803e e42e 3b3f 7931 a2be
000001f0: 37e8 62be 116b b53e ccba db3b c47b 263f
00000200: 9e98 933e b29f c43e 8304 5cbf 376e 38be
00000210: aca6 04be 5d52 35be 373c 723e 3347 2f3f
00000220: 6e38 0c3e 709f d23e 1977 35bf 5619 8bbf
00000230: 7066 8dbd a03b c73e 1622 8cbd 098b a6be
00000240: 1b3f 4cbf bb91 e13e 0a18 9ebe f6b0 3cbf
00000250: 6136 df3d d241 83bf 6ce0 cdbe b179 0a3f
00000260: d008 f6bc 5abe 343f 51a2 343f 3fe3 373f
00000270: 5667 7b3e 0406 37be d8f5 ac3e ae32 1c3e
00000280: 61f0 553e 9ced e3be 41a7 25be 12db aebe
00000290: c8fc f93d 0477 73be c8f8 953c 7cb9 a2be
000002a0: b07a 14bf af45 163e 633c 943d 384f 523d
000002b0: df9d f9bd 51e9 f1be 945b c43e 8720 0c3e
-0.9242566 0.65376514 0.57339144 -0.2456159 -0.14722545 0.29247993 0.5915118 -0.26567113
-0.38936287 0.35260016 0.38759777 -0.43562445 0.07101633 0.17467779 0.4439721 -0.05822293
0.1640066 0.7924864 0.099267006 0.43358472 -0.96933967 -0.10363568 0.8847127 -0.14932686
-0.43296817 -1.2644982 -0.30171475 -0.055244256 -0.27945435 -0.29439154 0.44235224 -0.7873555
0.13247699 0.122756526 -0.15853831 -0.18523169 0.08511326 0.39104056 0.4070037 -0.29740557
0.45867366 -1.2085359 -0.8664366 0.19939737 -0.7230957 0.35812852 0.048451886 0.55745596
-0.3896375 -0.76553494 0.61271137 0.24898143 -0.0431859 0.41226858 0.6414469 -0.08714978
0.28808057 -0.34564677 0.36345854 -0.052127462 0.058501244 -0.28546807 -0.33405763 -1.145237
0.60813475 -0.5950747 -1.4994156 0.089564376 0.42489398 0.22820425 -1.2669493 0.50335777
-0.069794625 0.04900268 0.008792863 -0.22753634 0.30598444 0.40711048 -0.13679536 0.0017159939
-0.16398118 -1.0642154 -0.10186711 0.010176441 0.033640325 -0.20747945 0.2243793 -0.18270254
0.35794383 0.507139 -1.1152031 0.27858937 0.6544494 -0.087758586 0.13293919 -0.22976038
0.5175703 -1.0377051 0.19631213 0.5323731 0.69913363 -0.05004529 -0.055147965 0.78595567
-0.42673752 -0.6246648 -1.0144461 -1.2160838 0.36141792 0.14197665 0.2768508 0.032120194
0.6249439 0.34943417 -0.4988647 -0.48607552 -0.71433103 0.42465255 -1.0504078 -0.52013034
0.050743382 0.25140607 0.73118424 -0.3167837 -0.22158895 0.35433248 0.0067056175 0.650326
0.28827375 0.38403088 -0.85944384 -0.18010794 -0.12954205 -0.177072 0.23655783 0.68468016
0.13693401 0.41137266 -0.70884854 -1.0867107 -0.06904304 0.38912678 -0.06842439 -0.3252795
-0.7978379 0.44056496 -0.30877715 -0.7370752 0.10899044 -1.0254462 -0.40210283 0.54091936
-0.030033499 0.70602953 0.70560175 0.71831125 0.24551138 -0.17873389 0.33781314 0.15253708
0.20892479 -0.4451722 -0.16177084 -0.34151512 0.12206417 -0.2377587 0.018307105 -0.31782138
-0.57999706 0.1467502 0.0723808 0.05134508 -0.12188315 -0.4724832 0.3835112 0.13684283
