model/jaeeun/keypoint_classifier.tflite (tflite, 6768 bytes, 6 tensors)

dense_2/bias f4 [12]
00000000: 0277 e6be cb7f 59bf bdf0 2d3f 8587 483e
00000010: 3e44 a13e e80a 70bf 57c4 b2bd 8c07 083f
00000020: ba58 0e3e 302d 083f b8e2 0e3e 7f64 45be
-0.4501267 -0.8496062 0.6794546 0.19582947 0.31497377 -0.9376664 -0.08728855 0.53136516
0.13901034 0.5319395 0.13953674 -0.19276617

dense_1/bias f4 [10]
00000000: 882e 17bb 6114 923f f535 b93e 4e43 f83e
00000010: 96c1 5a3f 7c1a c33f 098e 0e3f 9541 cf3e
00000020: 76ee 883e 7298 303f
-0.0023068506 1.1412469 0.36173978 0.4848885 0.8545164 1.5242457 0.5568548 0.40479723
0.2674443 0.68982613

dense/bias f4 [20]
00000000: c3f1 023f 546a 713f 9f19 5bbf 0d55 cbbf
00000010: 1b67 3bbf 816f 9ebf 48f9 63bf 81b5 903e
00000020: d38a b33e 6990 2dbf a1c4 eebe a3a0 9f3e
00000030: 49e4 053e 3a7d d03e 1cb4 a33e db8e 883e
00000040: 631e d33e 6b38 1cbf cc6b f13e 94f8 52bf
0.5115015 0.9430287 -0.8558597 -1.588533 -0.732042 -1.2377778 -0.8905225 0.28263476
0.35066852 -0.6779848 -0.4663439 0.31177244 0.13075365 0.4072054 0.3197335 0.2667149
0.4123412 -0.61023587 0.47152555 -0.8241055

sequential/dense/MatMul f4 [20, 42]
00000000: f4ff 42be e054 64be e27b 603e 21cf 09bf
00000010: 8746 653e 74be e5be df55 083e 41ae 19be
00000020: 31a7 ed3c b53b 8abf 8b2f 3f3e 7c78 ae3e
00000030: 6ca8 9dbd feaf 193e a53f b3bd 62cd 3b3e
00000040: ea2e 97bd a16d 043e df78 c53d 24fd b43e
00000050: 9545 b0bc c5c2 0a3e 9c1c 463d 3b48 813d
00000060: 8a20 8b3d 44c0 e83c cdf0 1dbe 4494 c93e
00000070: d848 80bd c249 333e 0ca6 983d f3db 473e
00000080: 664d 173e 7f99 b43e 3dd6 1fbe 3c7a 293f
00000090: 72fc d2bc c87d 283e 6189 ef3b 18f3 803e
000000a0: 73ec 1d3d bd0a e13e a66c 32be d422 d93d
000000b0: 55c0 f93e 2b65 243f e2a7 2c3e 7ae3 503e
000000c0: d6fa 6a3d 49ed d63c 22a9 163c a66d 103c
000000d0: 8225 833d 2f6c 213e 3176 8abd 0421 693e
000000e0: 112b 2dbd ffd8 b93e f25e 91bd e3a1 d13e
000000f0: ca28 3fbd 56bc 253d 369e 5c3c ebd6 b13e
00000100: 04a8 003e f7c4 513f 8ed8 043e d4bc 823f
00000110: a2ea 97bd 4bf1 77be 91ea 59ba c44a 313e
00000120: 2649 d03d a687 0f3f 8ceb 113e a460 1b3f
00000130: 87e0 adbd 1f16 fabe 86ff 4d3c f965 2abf
00000140: 6efa f73d 432c c1be 5ff4 2b3e 3080 aabe
00000150: 2002 9abd cef4 1ebe 1fab 16bf daf5 3b3f
00000160: 7daf 1ebe 9379 993e d0a9 62bd b071 493e
00000170: 687e 11bd 566b ec3d 3eba 0fbd 2354 a6be
00000180: 1520 4b3e 1b53 613d cc40 6ebd 9e97 823e
00000190: d056 a8bd 201d 83bd 21c8 163c a163 fabe
000001a0: 4937 863e 02e8 1bbe 7273 e03b fabd 863b
000001b0: 95e2 6bbe 1734 55bd 510a 9c3b 2885 17bf
000001c0: cbe4 9b3e 5c81 7bbe 9c4d 3fbd 723c 5fbe
000001d0: 27a9 9fbe 0cf4 d5be 6321 b73d b536 43bf
000001e0: f3d9 ec3d 8974 b8be b8f7 98bd 5434 34be
000001f0: 8d59 d6be 272a aebe 6c02 753e d885 5bbd
00000200: ae22 35be 89e9 35bd 569f 7abd 673b 98bd
00000210: 927a eebd 88e0 f9bd 2c1d 93be d6ce 2ebe
00000220: d1c0 833e 65cb fa3d d420 18bc a338 91bd
00000230: 4705 01be 781f 6e3d 5066 2abe ca2f 98bd
00000240: a4db 393e a535 a23d 4747 003e 6468 80be
00000250: afad 57bc 212e adbe c1f6 91bd da76 e1be
00000260: 4789 e13d 0922 c2bc 4508 913d a29f f4be
00000270: cd64 593c 1e66 37bf 32fc 853c 04c4 6dbf
00000280: 6639 1bbc 6cf9 67be ddc3 703d cad8 56bf
00000290: f67e e73d 87f2 3dbf c0f9 903e 2289 0dbf
000002a0: caf3 133e 8088 963c c514 14be a933 683e
000002b0: 7a2e 3cbe 56c1 823d 8d52 f4bd c7c1 5e3d
000002c0: c9c2 853d dce7 233d ac78 bf3d 5712 a53c
000002d0: 5a72 01be b179 c93d 4f8a 7dbd 6be5 273e
000002e0: 4a38 793c afaf a63d eced 6b3e b911 1ebc
000002f0: 4841 21bd 327d da3d 72c8 2abd 1d73 353e
00000300: 3b58 43bd 5993 09c0 5665 363e 2e89 7ebc
00000310: bc64 d9b8 fecf e93d c63c b5bd 1838 133e
00000320: b814 cbbd 88b2 91bd c269 f23d 00a7 a5bc
00000330: f052 243d 8476 153e 0928 6fbb 1afa 203e
00000340: c652 803c fb1f 9bbd c8c9 e9bd c484 443e
00000350: 3ff8 a0be b730 113e dca2 6abc 4498 01bd
00000360: 44dc 84bd 9e2e 92bc 3ed7 0ebf 5031 1fbd
00000370: 20e4 b63d c9f8 4abe d465 7b3c 4600 9bbd
00000380: a1e5 843c 908f d43c 59ec 253d 9dca 00bd
00000390: 21f3 d43d 3f34 78be 1418 44bd e3db 113d
000003a0: 7163 96bd dd77 323e 59db acbd a87d f73d
000003b0: 470c d03d bea4 9fbe 0e13 e1bd 1eaf 853d
000003c0: ad9f 9f3c 18fb 69bd 1d2c 883e 38aa 90bf
000003d0: 816c b23d a8b5 09bf e82e a3bd e2d1 53bb
000003e0: ac3f 953c 75c1 fcbd 8c1d 8e3e 7439 89bf
000003f0: b049 b83c 988a 4e3d b824 e3bd 672b 4cbf
-0.19042951 -0.22298002 0.21922258 -0.5383168 0.22390185 -0.44871867 0.13314007 -0.15007879
0.029010387 -1.0799471 0.1867048 0.34076297 -0.076981395 0.15008542 -0.087523736 0.18340066
-0.07381995 0.12932445 0.09642195 0.3534938 -0.021517554 0.13550861 0.048367128 0.06312605
0.06793316 0.028411992 -0.1542389 0.3937093 -0.06263894 0.17508605 0.07453546 0.19517498
0.14775619 0.35273358 -0.15609069 0.6620214 -0.02575514 0.16454232 0.007310078 0.25185466
0.038555574 0.43953505 -0.17424259 0.10602346 0.4877955 0.6421687 0.16860917 0.20399275
0.057368122 0.026236193 0.009195598 0.008815205 0.064036384 0.15763925 -0.067608245 0.227665
-0.0422774 0.36298367 -0.070981875 0.40943822 -0.04666976 0.040462814 0.013465455 0.34734282
0.12564093 0.8194117 0.12973234 1.0213876 -0.074177995 -0.2421314 -0.0008312846 0.17313677
0.10170202 0.5606636 0.1425001 0.60694337 -0.08490091 -0.48845002 0.012573129 -0.6656185
0.121083125 -0.37729082 0.16792439 -0.33300924 -0.075199366 -0.15523073 -0.5885486 0.73422015
-0.15496631 0.29975566 -0.055337727 0.19672275 -0.03552094 0.1154391 -0.035089724 -0.32486066
0.19836457 0.055010896 -0.058167264 0.255063 -0.08219683 -0.064020395 0.009202988 -0.48904136
0.26214054 -0.15225223 0.0068496997 0.0041120024 -0.23035653 -0.05205163 0.004761972 -0.59187555
0.30447993 -0.24561065 -0.046704873 -0.21800402 -0.3118374 -0.41787755 0.08941915 -0.7625535
0.11565008 -0.3602641 -0.074691236 -0.17598087 -0.41865197 -0.34016535 0.23926705 -0.05359444
-0.1768901 -0.04441217 -0.06118711 -0.07433205 -0.11644472 -0.12201029 -0.28733194 -0.17071089
0.25733045 0.12245826 -0.009285171 -0.07090881 -0.1259967 0.05813548 -0.16640592 -0.0743099
0.18150192 0.07920388 0.1252719 -0.25079644 -0.013163968 -0.33824256 -0.07127143 -0.4403599
0.11012512 -0.02369787 0.070816554 -0.4777804 0.013268662 -0.71640193 0.016355608 -0.9287722
-0.009474134 -0.2265374 0.05878054 -0.83924544 0.11303513 -0.7419819 0.28315544 -0.55287373
0.14448467 0.018375635 -0.14461048 0.22675957 -0.18377104 0.06384532 -0.11929808 0.05438402
0.06531293 0.04001604 0.09349188 0.020150347 -0.12641278 0.09837664 -0.06189948 0.1639611
0.015211174 0.08138978 0.23039979 -0.00964778 -0.039368898 0.1066841 -0.041695066 0.17719693
-0.047691565 -2.1496184 0.17812094 -0.015535636 -0.000103661296 0.114166245 -0.08849482 0.14376867
-0.09916061 -0.0711413 0.11836578 -0.020221233 0.040118158 0.14595991 -0.0036492369 0.15720406
0.01566447 -0.07574459 -0.1141544 0.19191271 -0.31439397 0.1417874 -0.014321055 -0.031639352
-0.06487325 -0.017844494 -0.55797184 -0.038865387 0.0893023 -0.19821467 0.015344102 -0.075684115
0.016222777 0.025947362 0.0405086 -0.031443227 0.10397936 -0.2423868 -0.047874525 0.03561009
-0.07343186 0.17428537 -0.08440275 0.12084514 0.10158592 -0.31180376 -0.109899625 0.065275416
0.019485319 -0.057124227 0.26596156 -1.1301947 0.08712102 -0.5379281 -0.07967931 -0.0032321145
0.018218838 -0.123415865 0.27756917 -1.0720658 0.022496074 0.050425142 -0.11090988 -0.79753727

sequential/dense_1/MatMul f4 [10, 20]
00000000: 5340 89be 7da5 b53e 1f63 393f bd7f 073f
00000010: 2302 0bbf 0b34 7b3f cf30 923f 0145 fbbd
00000020: 5f29 2e3f 9692 763d 9e45 3f3f c2ff b53e
00000030: 93f7 a33f a4c2 4ebe ced2 033f 1928 5c3f
00000040: e855 273f 8d01 003e 6d7a ab3e 8d7f e9bc
00000050: 2092 1a3f 340a 46bf 9f3b 40be 22cc a13c
00000060: 5bce 82be 975c f03d e136 2b3f 7871 dabf
00000070: 643d 843e 106b 863f 5d54 d1be c2c7 ff3e
00000080: fc97 00bd ebef 143f 133f c2bd a8cf 143f
00000090: 5a5d 13c0 671f 45bc ba62 1ac0 d2f4 403f
000000a0: acc6 e2bc 2a13 e13e 137b 9a3e 313f d33d
000000b0: 033d 303f f944 97bc a94a a0be 8b1e 9dbe
000000c0: 05a3 763f 857a 3dbd 86f0 1f3e a96f 8d3f
000000d0: 8e9d 773f ecf2 6cbc 0dd0 693f b7c5 023f
000000e0: b175 92be 0675 8cbe 0736 40bf 95cd 72bd
000000f0: 2b12 553f cb7e 3e3f 4a97 173e b31d 8cbf
00000100: aefb ab3e c245 a63e bb95 ee3d d87f 163f
00000110: e744 563d 8850 3e3e f85b d33e fd6d 093f
00000120: f57d 973c 7ec2 4b3f 5189 303e 783f b53d
00000130: 1ace 1bbe 9153 a03e 79e5 9c3e f88a 603e
00000140: dabd 1f3f 8c41 3fbf 52e6 8bbc d1a4 a0bc
00000150: 2791 2ac0 bab9 8a3b b59f 243e 1f44 3d3e
00000160: 33a6 683e 1478 7e3f cf1b 73bd 7217 073e
00000170: 102f 913e e9ac 083f 7d69 efbc 3861 5b3d
00000180: 3d00 483e 6850 54bf 1d26 14bb ed0f a83f
00000190: 80d9 c33e cac0 1fbe 42c7 493b 7a1d fb3e
000001a0: c923 d6bd df0a c3bd aad6 093f f33e 5abe
000001b0: 7aba 42bd 7638 e73c 2bfb 3f3f bd06 383f
000001c0: ab6d 50be 1259 db3e 502a 89be 12d2 09bf
000001d0: 1f06 96bf 482d cb3e 66c6 74bf 2251 463a
000001e0: ab35 9d3e 4656 7fbf 305d 8b3d 07c8 4b3f
000001f0: ed86 383f 0939 783f 5e80 db3e 9d41 c7be
00000200: aee8 8bbf 6b86 983e cf59 163f ad66 dbbe
00000210: 7559 2cbf d463 673e 499b 23bf 7f19 e7bf
00000220: e022 37be bc14 823e ba7d f93a 7a60 e43e
00000230: 001d 2ebc d862 293f 28a7 823e 73ba 06bd
00000240: a014 043c 5057 8b3d 163c 98bb 525e aa3e
00000250: 947b 103d a54b 0c40 05cf d03e 3508 3b3e
00000260: 811e 4d3e d500 6bbc 7680 253f 7e97 05be
00000270: 6cbd 6abe 2bf4 153d 038a 70be cafb 5540
00000280: 1318 c13c ffb4 02bf 94b2 ed3e 2b12 3a3f
00000290: a244 dc3f 83f8 1a3f 1c7f b7be 9f2e 0b3d
000002a0: 092a 07bd 0dda fe3e 0928 8d3f 256f 013f
000002b0: ac92 223e 58b8 4e3d 2dbf 8c3e 10da e5be
000002c0: 5ed6 043f e1b7 a83f 36ff 153f 74d0 aa3e
000002d0: 8269 e3bf 26b7 9abd 620c 5d3f b352 493f
000002e0: bfb6 653f e9a0 a73f 9396 863d f90e f5be
000002f0: 8102 1b3e 4f3d dd3c 05fa 42bd 488c 15be
00000300: 25fb bc3e 805a c9bf 8dbf 013f 5f99 8dbe
00000310: 02ee 53bf 758b ea3e 16b4 68bd fdf1 833e
-0.26806888 0.3547782 0.7241687 0.5292929 -0.54300135 0.98126286 1.1421145 -0.12269021
0.6803188 0.06019839 0.747156 0.3554669 1.2809929 -0.20191437 0.5149354 0.85998684
0.6536546 0.12500592 0.3349184 -0.028503204 0.6037922 -0.7735932 -0.18772744 0.019750658
-0.25548062 0.1173641 0.66880614 -1.7065878 0.25828087 1.0501423 -0.40884677 0.4995709
-0.031394944 0.58178586 -0.09484687 0.5812936 -2.3025727 -0.012031413 -2.4122758 0.75373566
-0.027682625 0.43959934 0.30172023 0.10314787 0.68843096 -0.018465506 -0.3130696 -0.30687365
0.963425 -0.04625942 0.15619096 1.1049701 0.96724784 -0.014462214 0.91333085 0.5108294
-0.28605416 -0.27433032 -0.7508244 -0.05927809 0.8323085 0.7441222 0.14803806 -1.0946563
0.33590454 0.32475096 0.116496526 0.58788824 0.052311804 0.18585408 0.41281104 0.53683454
0.018492678 0.79593647 0.17239882 0.08849996 -0.1521534 0.31313756 0.30643824 0.21928012
0.62399065 -0.7470939 -0.017077599 -0.01960984 -2.6651094 0.004233566 0.16076548 0.18483017
0.2271965 0.99401975 -0.059352692 0.13192537 0.28356218 0.5338884 -0.029225105 0.053559512
0.19531341 -0.8293519 -0.0022605725 1.312986 0.38251877 -0.15600887 0.0030788933 0.49045926
-0.10456044 -0.09523558 0.53843176 -0.21313076 -0.04754112 0.028225165 0.74992627 0.7188528
-0.20354335 0.42841393 -0.26790094 -0.53836167 -1.1720618 0.39682984 -0.9561523 0.00075651903
0.30705008 -0.9974102 0.068048835 0.7960209 0.7208088 0.9696203 0.42871374 -0.38917246
-1.0930383 0.29790053 0.5873079 -0.42851773 -0.67324 0.22596675 -0.6390882 -1.8054656
-0.17884398 0.25406444 0.0019034662 0.44604856 -0.010627031 0.6616645 0.25518155 -0.032892656
0.008061558 0.06803763 -0.0046458347 0.33275086 0.035274103 2.192117 0.40782943 0.1826485
0.20031168 -0.01434346 0.6464914 -0.13046071 -0.22923821 0.03660981 -0.23490147 3.343493
0.02357105 -0.5105743 0.46425307 0.7268397 1.7208445 0.6053545 -0.35839164 0.03398001
-0.032999072 0.49775735 1.1027843 0.5056022 0.15876263 0.050468773 0.27489606 -0.4489293
0.518896 1.3181115 0.58592546 0.33362162 -1.7766573 -0.07554464 0.8634702 0.78641814
0.89731973 1.3095981 0.065716885 -0.47862986 0.15137674 0.027006773 -0.04760172 -0.14604294
0.36910358 -1.5730743 0.5068291 -0.27656075 -0.82785046 0.45809522 -0.05681237 0.2577056

sequential/dense_2/MatMul f4 [12, 10]
00000000: 1ec8 89bd c8b9 1ebf bd0c 09be 2174 553e
00000010: dc97 83bd 0b94 03bf 30c1 e63e db44 e83e
00000020: ab96 f93e 6d46 0f3e af38 763f 2551 a6be
00000030: 0d70 b73e 62b6 ae3e f11a 97bf bae1 ea3e
00000040: f1cc 74be d0ba 6fbf fdbb babd e44a e93d
00000050: 085f 193f 4888 64bd 5b4a ae3e 848f dbbe
00000060: 009e ca3c 7691 a9bd 496a bbbe 2b3b 2f3f
00000070: 8922 8bbe f7cf 5dbf 4b1d 1cbc d114 99bf
00000080: a12a 44bc 538a 083f c4a3 933e 1ceb 1abe
00000090: 2fdf 4bbe 2b06 c4bf 5824 983e f37e 5e3f
000000a0: 4b8e 36bf 4f9b 3fbe b887 143f 4c5c 51bf
000000b0: bdf7 84be ec4e 783c 681e 46bf 5422 103f
000000c0: cc31 323f ab55 403e cda2 413f f1b6 d7be
000000d0: 5971 213e 38c2 813f 1155 043f fb4d 89bf
000000e0: 52ea f7b7 88e8 e73c 190e 043f 064f 8bbf
000000f0: e1f7 3a3e b58e 963e cc41 a03d e660 ff3d
00000100: 61d4 f13e a814 003f 0de4 55bf 08e6 e93e
00000110: d192 b3bf 4af8 92bf ed5e d4bd 212a 493f
00000120: 7554 a3be 1d90 70be 883e d83e 0078 123f
00000130: fe44 3fbf 6d44 85be 2d12 50bf 7a06 17bf
00000140: c397 1f3e 89ea 6c3f 485f b4bc b8e5 723e
00000150: cb89 5c3d ac6d e63d ddca 9abe 38df 11c0
00000160: ee4e 383e b41b a3bc cc9a 7ebf 0fd5 ebbd
00000170: 6707 f1bf a9cb 1bbf 1264 263e cf80 8c3f
00000180: a487 703f fc4a a23e 6d3e 173d 0ea2 84bf
00000190: 08df e03e 5137 eb3e 76a3 c73d ff70 8ebf
000001a0: 8346 893b b46b 19bf 2d4e 9cbe f624 7e3e
000001b0: 939d 59bf 6a78 513f 04f5 8abf f097 2dbe
000001c0: 6742 9b3e 4c03 83bd 4568 c1be e0cc 283f
000001d0: c882 7d3f 4b8e 78be 7af0 0c3f 3074 90bf
-0.067276224 -0.6200223 -0.13383766 0.20845081 -0.06425449 -0.5139777 0.45069265 0.45365033
0.48747763 0.13991709 0.9618024 -0.32483783 0.35827675 0.34123522 -1.1805097 0.4587534
-0.23906304 -0.9364443 -0.09117887 0.113912374 0.5991063 -0.05579403 0.34041104 -0.4288293
0.024733543 -0.082796976 -0.36604527 0.6844966 -0.27174786 -0.86645454 -0.009528468 -1.1959478
-0.011973054 0.53336066 0.2883588 -0.1512875 -0.19909357 -1.5314382 0.29715228 0.8691246
-0.7131087 -0.1871159 0.5801959 -0.8178146 -0.2597026 0.015155535 -0.77390146 0.5630238
0.69607234 0.1878268 0.7563904 -0.4213176 0.15765895 1.0137396 0.516923 -1.0726923
-2.9553808e-05 0.028309122 0.5158401 -1.0883491 0.18258621 0.29405752 0.0782505 0.12469654
0.47232345 0.5003152 -0.835511 0.45683312 -1.402918 -1.1482022 -0.10369668 0.7857991
-0.31900373 -0.23492475 0.42235208 0.57214355 -0.7471465 -0.26028767 -0.81277734 -0.5899426
0.15585236 0.9254537 -0.02201809 0.23720443 0.053842347 0.11251387 -0.30232897 -2.2792492
0.1799886 -0.01991067 -0.9945495 -0.11515247 -1.8830384 -0.60857636 0.16249111 1.0976809
0.9395697 0.31697834 0.03692477 -1.0361955 0.4392016 0.4594064 0.097479746 -1.1128234
0.004189314 -0.59929967 -0.30528393 0.24818787 -0.85006064 0.8182436 -1.0856023 -0.16952491
0.30324098 -0.06397113 -0.37774864 0.65937614 0.9902768 -0.2427303 0.5505444 -1.1285458
